[ScheduleSyncTensorsGraph]
TensorsGraphInfo:
  interpolate (/home/kojoe/.local/lib/python3.10/site-packages/torch/nn/functional.py:4594)
  _get_pos_embed (/dev/shm/modules/transformers_modules/radna/XLA-InternVL2-8B/746cd35e611234c48f8dc5c61dbe30b5a782a208/modeling_intern_vit.py:157)
  forward (/dev/shm/modules/transformers_modules/radna/XLA-InternVL2-8B/746cd35e611234c48f8dc5c61dbe30b5a782a208/modeling_intern_vit.py:170)
  _call_impl (/home/kojoe/.local/lib/python3.10/site-packages/torch/nn/modules/module.py:1747)
  _wrapped_call_impl (/home/kojoe/.local/lib/python3.10/site-packages/torch/nn/modules/module.py:1736)
  forward (/dev/shm/modules/transformers_modules/radna/XLA-InternVL2-8B/746cd35e611234c48f8dc5c61dbe30b5a782a208/modeling_intern_vit.py:410)
  _call_impl (/home/kojoe/.local/lib/python3.10/site-packages/torch/nn/modules/module.py:1747)
  _wrapped_call_impl (/home/kojoe/.local/lib/python3.10/site-packages/torch/nn/modules/module.py:1736)
  extract_feature (/dev/shm/modules/transformers_modules/radna/XLA-InternVL2-8B/746cd35e611234c48f8dc5c61dbe30b5a782a208/modeling_internvl_chat.py:218)
  generate (/dev/shm/modules/transformers_modules/radna/XLA-InternVL2-8B/746cd35e611234c48f8dc5c61dbe30b5a782a208/modeling_internvl_chat.py:396)
  decorate_context (/home/kojoe/.local/lib/python3.10/site-packages/torch/utils/_contextlib.py:116)
  chat (/dev/shm/modules/transformers_modules/radna/XLA-InternVL2-8B/746cd35e611234c48f8dc5c61dbe30b5a782a208/modeling_internvl_chat.py:356)
  <module> (/home/kojoe/EasyAnimate/easyanimate/image_caption/template.py:131)

Root Hashes: (870300dd4bb98225bdd68a4c6c49b085)

## BEGIN_GRAPH
HloModule IrToHlo.9, entry_computation_layout={(bf16[1,1025,1024]{2,1,0})->(f32[1,1024,32,32]{1,3,2,0})}

ENTRY %IrToHlo.9 (p0.1: bf16[1,1025,1024]) -> (f32[1,1024,32,32]) {
  %p0.1 = bf16[1,1025,1024]{2,1,0} parameter(0), sharding={devices=[1,8,1]0,1,2,3,4,5,6,7}, metadata={op_type="xla__device_data" op_name="xla__device_data" source_file="/home/kojoe/.local/lib/python3.10/site-packages/torch_xla/distributed/spmd/xla_sharding.py" source_line=624}
  %slice.2 = bf16[1,1025,1024]{2,1,0} slice(bf16[1,1025,1024]{2,1,0} %p0.1), slice={[0:1], [0:1025], [0:1024]}, metadata={op_type="xla__select" op_name="xla__select" source_file="/dev/shm/modules/transformers_modules/radna/XLA-InternVL2-8B/746cd35e611234c48f8dc5c61dbe30b5a782a208/modeling_intern_vit.py" source_line=170}
  %slice.3 = bf16[1,1024,1024]{2,1,0} slice(bf16[1,1025,1024]{2,1,0} %slice.2), slice={[0:1], [1:1025], [0:1024]}, metadata={op_type="xla__select" op_name="xla__select" source_file="/dev/shm/modules/transformers_modules/radna/XLA-InternVL2-8B/746cd35e611234c48f8dc5c61dbe30b5a782a208/modeling_intern_vit.py" source_line=170}
  %slice.4 = bf16[1,1024,1024]{2,1,0} slice(bf16[1,1024,1024]{2,1,0} %slice.3), slice={[0:1], [0:1024], [0:1024]}, metadata={op_type="xla__select" op_name="xla__select" source_file="/dev/shm/modules/transformers_modules/radna/XLA-InternVL2-8B/746cd35e611234c48f8dc5c61dbe30b5a782a208/modeling_intern_vit.py" source_line=170}
  %convert.5 = f32[1,1024,1024]{2,1,0} convert(bf16[1,1024,1024]{2,1,0} %slice.4), metadata={op_type="xla__cast" op_name="xla__cast" source_file="/dev/shm/modules/transformers_modules/radna/XLA-InternVL2-8B/746cd35e611234c48f8dc5c61dbe30b5a782a208/modeling_intern_vit.py" source_line=155}
  %reshape.6 = f32[1,32,32,1024]{3,2,1,0} reshape(f32[1,1024,1024]{2,1,0} %convert.5), metadata={op_type="aten__view" op_name="aten__view" source_file="/dev/shm/modules/transformers_modules/radna/XLA-InternVL2-8B/746cd35e611234c48f8dc5c61dbe30b5a782a208/modeling_intern_vit.py" source_line=155}
  %transpose.7 = f32[1,1024,32,32]{1,3,2,0} transpose(f32[1,32,32,1024]{3,2,1,0} %reshape.6), dimensions={0,3,1,2}, metadata={op_type="aten__permute" op_name="aten__permute" source_file="/dev/shm/modules/transformers_modules/radna/XLA-InternVL2-8B/746cd35e611234c48f8dc5c61dbe30b5a782a208/modeling_intern_vit.py" source_line=156}
  ROOT %tuple.8 = (f32[1,1024,32,32]{1,3,2,0}) tuple(f32[1,1024,32,32]{1,3,2,0} %transpose.7)
}


Graph Hash: 34df536d76032c477f71bf50c9ec64af

## END_GRAPH


#OUTPUT_SHARDING_BEGIN

f32[1,1024,32,32] {devices=[1,1,8,1]0,1,2,3,4,5,6,7}

#OUTPUT_SHARDING_END

[ScheduleSyncTensorsGraph]
TensorsGraphInfo:
  generate (/dev/shm/modules/transformers_modules/radna/XLA-InternVL2-8B/746cd35e611234c48f8dc5c61dbe30b5a782a208/modeling_internvl_chat.py:403)
  decorate_context (/home/kojoe/.local/lib/python3.10/site-packages/torch/utils/_contextlib.py:116)
  chat (/dev/shm/modules/transformers_modules/radna/XLA-InternVL2-8B/746cd35e611234c48f8dc5c61dbe30b5a782a208/modeling_internvl_chat.py:356)
  <module> (/home/kojoe/EasyAnimate/easyanimate/image_caption/template.py:131)

Root Hashes: (32a88e63cf34a3d4b5d82287f1100455)

## BEGIN_GRAPH
HloModule IrToHlo.17, entry_computation_layout={(s64[], s64[1,310]{1,0})->(pred[])}

%AddComputation.10 (x.11: s64[], y.12: s64[]) -> s64[] {
  %x.11 = s64[] parameter(0)
  %y.12 = s64[] parameter(1)
  ROOT %add.13 = s64[] add(s64[] %x.11, s64[] %y.12)
}

ENTRY %IrToHlo.17 (p0.2: s64[], p1.3: s64[1,310]) -> (pred[]) {
  %constant.9 = s32[] constant(310), metadata={op_type="aten__sum" op_name="aten__sum" source_file="/dev/shm/modules/transformers_modules/radna/XLA-InternVL2-8B/746cd35e611234c48f8dc5c61dbe30b5a782a208/modeling_internvl_chat.py" source_line=403}
  %p1.3 = s64[1,310]{1,0} parameter(1), sharding={replicated}, metadata={op_type="xla__device_data" op_name="xla__device_data" source_file="/home/kojoe/.local/lib/python3.10/site-packages/torch/nn/functional.py" source_line=2551}
  %reshape.4 = s64[310]{0} reshape(s64[1,310]{1,0} %p1.3), metadata={op_type="aten__view" op_name="aten__view" source_file="/dev/shm/modules/transformers_modules/radna/XLA-InternVL2-8B/746cd35e611234c48f8dc5c61dbe30b5a782a208/modeling_internvl_chat.py" source_line=401}
  %p0.2 = s64[] parameter(0), sharding={replicated}, metadata={op_type="xla__device_data" op_name="xla__device_data" source_file="/dev/shm/modules/transformers_modules/radna/XLA-InternVL2-8B/746cd35e611234c48f8dc5c61dbe30b5a782a208/modeling_internvl_chat.py" source_line=402}
  %broadcast.5 = s64[310]{0} broadcast(s64[] %p0.2), dimensions={}, metadata={op_type="aten__eq" op_name="aten__eq" source_file="/dev/shm/modules/transformers_modules/radna/XLA-InternVL2-8B/746cd35e611234c48f8dc5c61dbe30b5a782a208/modeling_internvl_chat.py" source_line=402}
  %compare.6 = pred[310]{0} compare(s64[310]{0} %reshape.4, s64[310]{0} %broadcast.5), direction=EQ, metadata={op_type="aten__eq" op_name="aten__eq" source_file="/dev/shm/modules/transformers_modules/radna/XLA-InternVL2-8B/746cd35e611234c48f8dc5c61dbe30b5a782a208/modeling_internvl_chat.py" source_line=402}
  %convert.7 = s64[310]{0} convert(pred[310]{0} %compare.6), metadata={op_type="aten__sum" op_name="aten__sum" source_file="/dev/shm/modules/transformers_modules/radna/XLA-InternVL2-8B/746cd35e611234c48f8dc5c61dbe30b5a782a208/modeling_internvl_chat.py" source_line=403}
  %constant.8 = s64[] constant(0), metadata={op_type="aten__sum" op_name="aten__sum" source_file="/dev/shm/modules/transformers_modules/radna/XLA-InternVL2-8B/746cd35e611234c48f8dc5c61dbe30b5a782a208/modeling_internvl_chat.py" source_line=403}
  %reduce.14 = s64[] reduce(s64[310]{0} %convert.7, s64[] %constant.8), dimensions={0}, to_apply=%AddComputation.10, metadata={op_type="aten__sum" op_name="aten__sum" source_file="/dev/shm/modules/transformers_modules/radna/XLA-InternVL2-8B/746cd35e611234c48f8dc5c61dbe30b5a782a208/modeling_internvl_chat.py" source_line=403}
  %constant.1 = s64[] constant(0), metadata={op_type="prim__Constant" op_name="prim__Constant" source_file="/dev/shm/modules/transformers_modules/radna/XLA-InternVL2-8B/746cd35e611234c48f8dc5c61dbe30b5a782a208/modeling_internvl_chat.py" source_line=403}
  %compare.15 = pred[] compare(s64[] %reduce.14, s64[] %constant.1), direction=NE, metadata={op_type="aten__ne" op_name="aten__ne" source_file="/dev/shm/modules/transformers_modules/radna/XLA-InternVL2-8B/746cd35e611234c48f8dc5c61dbe30b5a782a208/modeling_internvl_chat.py" source_line=403}
  ROOT %tuple.16 = (pred[]) tuple(pred[] %compare.15)
}


Graph Hash: bdcbbc31de1dafa4069bb99f26aad236

## END_GRAPH


#OUTPUT_SHARDING_BEGIN

pred[] {replicated}

#OUTPUT_SHARDING_END

[ScheduleSyncTensorsGraph]
TensorsGraphInfo:
  generate (/dev/shm/modules/transformers_modules/radna/XLA-InternVL2-8B/746cd35e611234c48f8dc5c61dbe30b5a782a208/modeling_internvl_chat.py:404)
  decorate_context (/home/kojoe/.local/lib/python3.10/site-packages/torch/utils/_contextlib.py:116)
  chat (/dev/shm/modules/transformers_modules/radna/XLA-InternVL2-8B/746cd35e611234c48f8dc5c61dbe30b5a782a208/modeling_internvl_chat.py:356)
  <module> (/home/kojoe/EasyAnimate/easyanimate/image_caption/template.py:131)

Root Hashes: (efa30a1bdff2a01c8ac9b6c875e55e4f)

## BEGIN_GRAPH
HloModule IrToHlo.7, entry_computation_layout={(s64[], s64[1,310]{1,0})->(pred[310]{0})}

ENTRY %IrToHlo.7 (p0.1: s64[], p1.2: s64[1,310]) -> (pred[310]) {
  %p1.2 = s64[1,310]{1,0} parameter(1), sharding={replicated}, metadata={op_type="xla__device_data" op_name="xla__device_data" source_file="/home/kojoe/.local/lib/python3.10/site-packages/torch/nn/functional.py" source_line=2551}
  %reshape.3 = s64[310]{0} reshape(s64[1,310]{1,0} %p1.2), metadata={op_type="aten__view" op_name="aten__view" source_file="/dev/shm/modules/transformers_modules/radna/XLA-InternVL2-8B/746cd35e611234c48f8dc5c61dbe30b5a782a208/modeling_internvl_chat.py" source_line=401}
  %p0.1 = s64[] parameter(0), sharding={replicated}, metadata={op_type="xla__device_data" op_name="xla__device_data" source_file="/dev/shm/modules/transformers_modules/radna/XLA-InternVL2-8B/746cd35e611234c48f8dc5c61dbe30b5a782a208/modeling_internvl_chat.py" source_line=402}
  %broadcast.4 = s64[310]{0} broadcast(s64[] %p0.1), dimensions={}, metadata={op_type="aten__eq" op_name="aten__eq" source_file="/dev/shm/modules/transformers_modules/radna/XLA-InternVL2-8B/746cd35e611234c48f8dc5c61dbe30b5a782a208/modeling_internvl_chat.py" source_line=402}
  %compare.5 = pred[310]{0} compare(s64[310]{0} %reshape.3, s64[310]{0} %broadcast.4), direction=EQ, metadata={op_type="aten__eq" op_name="aten__eq" source_file="/dev/shm/modules/transformers_modules/radna/XLA-InternVL2-8B/746cd35e611234c48f8dc5c61dbe30b5a782a208/modeling_internvl_chat.py" source_line=402}
  ROOT %tuple.6 = (pred[310]{0}) tuple(pred[310]{0} %compare.5)
}


Graph Hash: af767894ff2a0d067f27b81ef6c4c6f5

## END_GRAPH


#OUTPUT_SHARDING_BEGIN

pred[310] {replicated}

#OUTPUT_SHARDING_END

[ScheduleSyncTensorsGraph]
TensorsGraphInfo:
  isin_mps_friendly (/home/kojoe/.local/lib/python3.10/site-packages/transformers/pytorch_utils.py:328)
  _prepare_special_tokens (/home/kojoe/.local/lib/python3.10/site-packages/transformers/generation/utils.py:1658)
  generate (/home/kojoe/.local/lib/python3.10/site-packages/transformers/generation/utils.py:1809)
  decorate_context (/home/kojoe/.local/lib/python3.10/site-packages/torch/utils/_contextlib.py:116)
  generate (/dev/shm/modules/transformers_modules/radna/XLA-InternVL2-8B/746cd35e611234c48f8dc5c61dbe30b5a782a208/modeling_internvl_chat.py:410)
  decorate_context (/home/kojoe/.local/lib/python3.10/site-packages/torch/utils/_contextlib.py:116)
  chat (/dev/shm/modules/transformers_modules/radna/XLA-InternVL2-8B/746cd35e611234c48f8dc5c61dbe30b5a782a208/modeling_internvl_chat.py:356)
  <module> (/home/kojoe/EasyAnimate/easyanimate/image_caption/template.py:131)

Root Hashes: (17fee3211ccd47407da74dac3217b467)

## BEGIN_GRAPH
HloModule IrToHlo.4, entry_computation_layout={(s64[])->(s64[1]{0})}

ENTRY %IrToHlo.4 (p0.1: s64[]) -> (s64[1]) {
  %p0.1 = s64[] parameter(0), sharding={replicated}, metadata={op_type="xla__device_data" op_name="xla__device_data" source_file="/home/kojoe/.local/lib/python3.10/site-packages/transformers/generation/utils.py" source_line=1638}
  %reshape.2 = s64[1]{0} reshape(s64[] %p0.1), metadata={op_type="aten__view" op_name="aten__view" source_file="/home/kojoe/.local/lib/python3.10/site-packages/transformers/generation/utils.py" source_line=1638}
  ROOT %tuple.3 = (s64[1]{0}) tuple(s64[1]{0} %reshape.2)
}


Graph Hash: 4a783c9c5bd9d987a5c0fcb220cc13b8

## END_GRAPH


#OUTPUT_SHARDING_BEGIN

s64[1] {replicated}

#OUTPUT_SHARDING_END

[ScheduleSyncTensorsGraph]
TensorsGraphInfo:
  _prepare_special_tokens (/home/kojoe/.local/lib/python3.10/site-packages/transformers/generation/utils.py:1657)
  generate (/home/kojoe/.local/lib/python3.10/site-packages/transformers/generation/utils.py:1809)
  decorate_context (/home/kojoe/.local/lib/python3.10/site-packages/torch/utils/_contextlib.py:116)
  generate (/dev/shm/modules/transformers_modules/radna/XLA-InternVL2-8B/746cd35e611234c48f8dc5c61dbe30b5a782a208/modeling_internvl_chat.py:410)
  decorate_context (/home/kojoe/.local/lib/python3.10/site-packages/torch/utils/_contextlib.py:116)
  chat (/dev/shm/modules/transformers_modules/radna/XLA-InternVL2-8B/746cd35e611234c48f8dc5c61dbe30b5a782a208/modeling_internvl_chat.py:356)
  <module> (/home/kojoe/EasyAnimate/easyanimate/image_caption/template.py:131)

Root Hashes: (6e8af65a7050e1f8047c8ac0d130369f)

## BEGIN_GRAPH
HloModule IrToHlo.17, entry_computation_layout={(pred[1]{0})->(pred[])}

%AnyComputation.4 (x.5: pred[], y.6: pred[]) -> pred[] {
  %x.5 = pred[] parameter(0)
  %constant.7 = pred[] constant(false)
  %compare.10 = pred[] compare(pred[] %x.5, pred[] %constant.7), direction=NE
  %y.6 = pred[] parameter(1)
  %compare.9 = pred[] compare(pred[] %y.6, pred[] %constant.7), direction=NE
  %or.11 = pred[] or(pred[] %compare.10, pred[] %compare.9)
  %constant.8 = pred[] constant(true)
  ROOT %select.12 = pred[] select(pred[] %or.11, pred[] %constant.8, pred[] %constant.7)
}

ENTRY %IrToHlo.17 (p0.1: pred[1]) -> (pred[]) {
  %constant.2 = s32[] constant(1), metadata={op_type="aten__any" op_name="aten__any" source_file="/home/kojoe/.local/lib/python3.10/site-packages/transformers/generation/utils.py" source_line=1658}
  %p0.1 = pred[1]{0} parameter(0), sharding={replicated}, metadata={op_type="xla__device_data" op_name="xla__device_data" source_file="/home/kojoe/.local/lib/python3.10/site-packages/transformers/generation/utils.py" source_line=1658}
  %constant.3 = pred[] constant(false), metadata={op_type="aten__any" op_name="aten__any" source_file="/home/kojoe/.local/lib/python3.10/site-packages/transformers/generation/utils.py" source_line=1658}
  %reduce.13 = pred[] reduce(pred[1]{0} %p0.1, pred[] %constant.3), dimensions={0}, to_apply=%AnyComputation.4, metadata={op_type="aten__any" op_name="aten__any" source_file="/home/kojoe/.local/lib/python3.10/site-packages/transformers/generation/utils.py" source_line=1658}
  %constant.14 = pred[] constant(false), metadata={op_type="aten__any" op_name="aten__any" source_file="/home/kojoe/.local/lib/python3.10/site-packages/transformers/generation/utils.py" source_line=1658}
  %compare.15 = pred[] compare(pred[] %reduce.13, pred[] %constant.14), direction=NE, metadata={op_type="aten__any" op_name="aten__any" source_file="/home/kojoe/.local/lib/python3.10/site-packages/transformers/generation/utils.py" source_line=1658}
  ROOT %tuple.16 = (pred[]) tuple(pred[] %compare.15)
}


Graph Hash: 51c42aae7524c27f67412a7fc449ff0d

## END_GRAPH


#OUTPUT_SHARDING_BEGIN

pred[] {replicated}

#OUTPUT_SHARDING_END

[ScheduleSyncTensorsGraph]
TensorsGraphInfo:
  _prepare_special_tokens (/home/kojoe/.local/lib/python3.10/site-packages/transformers/generation/utils.py:1666)
  generate (/home/kojoe/.local/lib/python3.10/site-packages/transformers/generation/utils.py:1809)
  decorate_context (/home/kojoe/.local/lib/python3.10/site-packages/torch/utils/_contextlib.py:116)
  generate (/dev/shm/modules/transformers_modules/radna/XLA-InternVL2-8B/746cd35e611234c48f8dc5c61dbe30b5a782a208/modeling_internvl_chat.py:410)
  decorate_context (/home/kojoe/.local/lib/python3.10/site-packages/torch/utils/_contextlib.py:116)
  chat (/dev/shm/modules/transformers_modules/radna/XLA-InternVL2-8B/746cd35e611234c48f8dc5c61dbe30b5a782a208/modeling_internvl_chat.py:356)
  <module> (/home/kojoe/EasyAnimate/easyanimate/image_caption/template.py:131)

Root Hashes: (f217dda3bb384b8866dea60c446bdcb3)

## BEGIN_GRAPH
HloModule IrToHlo.20, entry_computation_layout={(s64[1]{0})->(pred[])}

%AnyComputation.7 (x.8: pred[], y.9: pred[]) -> pred[] {
  %x.8 = pred[] parameter(0)
  %constant.10 = pred[] constant(false)
  %compare.13 = pred[] compare(pred[] %x.8, pred[] %constant.10), direction=NE
  %y.9 = pred[] parameter(1)
  %compare.12 = pred[] compare(pred[] %y.9, pred[] %constant.10), direction=NE
  %or.14 = pred[] or(pred[] %compare.13, pred[] %compare.12)
  %constant.11 = pred[] constant(true)
  ROOT %select.15 = pred[] select(pred[] %or.14, pred[] %constant.11, pred[] %constant.10)
}

ENTRY %IrToHlo.20 (p0.2: s64[1]) -> (pred[]) {
  %constant.5 = s32[] constant(1), metadata={op_type="aten__any" op_name="aten__any" source_file="/home/kojoe/.local/lib/python3.10/site-packages/transformers/generation/utils.py" source_line=1667}
  %p0.2 = s64[1]{0} parameter(0), sharding={replicated}, metadata={op_type="xla__device_data" op_name="xla__device_data" source_file="/home/kojoe/.local/lib/python3.10/site-packages/transformers/generation/utils.py" source_line=1667}
  %constant.1 = s64[] constant(0), metadata={op_type="prim__Constant" op_name="prim__Constant" source_file="/home/kojoe/.local/lib/python3.10/site-packages/transformers/generation/utils.py" source_line=1667}
  %broadcast.3 = s64[1]{0} broadcast(s64[] %constant.1), dimensions={}, metadata={op_type="aten__lt" op_name="aten__lt" source_file="/home/kojoe/.local/lib/python3.10/site-packages/transformers/generation/utils.py" source_line=1667}
  %compare.4 = pred[1]{0} compare(s64[1]{0} %p0.2, s64[1]{0} %broadcast.3), direction=LT, metadata={op_type="aten__lt" op_name="aten__lt" source_file="/home/kojoe/.local/lib/python3.10/site-packages/transformers/generation/utils.py" source_line=1667}
  %constant.6 = pred[] constant(false), metadata={op_type="aten__any" op_name="aten__any" source_file="/home/kojoe/.local/lib/python3.10/site-packages/transformers/generation/utils.py" source_line=1667}
  %reduce.16 = pred[] reduce(pred[1]{0} %compare.4, pred[] %constant.6), dimensions={0}, to_apply=%AnyComputation.7, metadata={op_type="aten__any" op_name="aten__any" source_file="/home/kojoe/.local/lib/python3.10/site-packages/transformers/generation/utils.py" source_line=1667}
  %constant.17 = pred[] constant(false), metadata={op_type="aten__any" op_name="aten__any" source_file="/home/kojoe/.local/lib/python3.10/site-packages/transformers/generation/utils.py" source_line=1667}
  %compare.18 = pred[] compare(pred[] %reduce.16, pred[] %constant.17), direction=NE, metadata={op_type="aten__any" op_name="aten__any" source_file="/home/kojoe/.local/lib/python3.10/site-packages/transformers/generation/utils.py" source_line=1667}
  ROOT %tuple.19 = (pred[]) tuple(pred[] %compare.18)
}


Graph Hash: 9e8fabf1aa7a79580cfdd12ddf738d7

## END_GRAPH


#OUTPUT_SHARDING_BEGIN

pred[] {replicated}

#OUTPUT_SHARDING_END

[ScheduleSyncTensorsGraph]
TensorsGraphInfo:
  isin_mps_friendly (/home/kojoe/.local/lib/python3.10/site-packages/transformers/pytorch_utils.py:328)
  __call__ (/home/kojoe/.local/lib/python3.10/site-packages/transformers/generation/stopping_criteria.py:466)
  __call__ (/home/kojoe/.local/lib/python3.10/site-packages/transformers/generation/stopping_criteria.py:475)
  _sample (/home/kojoe/.local/lib/python3.10/site-packages/transformers/generation/utils.py:3016)
  generate (/home/kojoe/.local/lib/python3.10/site-packages/transformers/generation/utils.py:2015)
  decorate_context (/home/kojoe/.local/lib/python3.10/site-packages/torch/utils/_contextlib.py:116)
  generate (/dev/shm/modules/transformers_modules/radna/XLA-InternVL2-8B/746cd35e611234c48f8dc5c61dbe30b5a782a208/modeling_internvl_chat.py:410)
  decorate_context (/home/kojoe/.local/lib/python3.10/site-packages/torch/utils/_contextlib.py:116)
  chat (/dev/shm/modules/transformers_modules/radna/XLA-InternVL2-8B/746cd35e611234c48f8dc5c61dbe30b5a782a208/modeling_internvl_chat.py:356)
  <module> (/home/kojoe/EasyAnimate/easyanimate/image_caption/template.py:131)

Root Hashes: (6600a75bb8b4ed107a43be5139cbae88)

## BEGIN_GRAPH
HloModule IrToHlo.13267, entry_computation_layout={(s64[], s64[], f64[], bf16[92553,4096]{1,0}, f32[], /*index=5*/bf16[4096,14336]{1,0}, bf16[14336,4096]{1,0}, bf16[4096,4096]{1,0}, bf16[6144,4096]{1,0}, bf16[4096,14336]{1,0}, /*index=10*/bf16[14336,4096]{1,0}, bf16[4096,4096]{1,0}, bf16[6144,4096]{1,0}, bf16[4096,14336]{1,0}, bf16[14336,4096]{1,0}, /*index=15*/bf16[4096,4096]{1,0}, bf16[6144,4096]{1,0}, bf16[4096,14336]{1,0}, bf16[14336,4096]{1,0}, bf16[4096,4096]{1,0}, /*index=20*/bf16[6144,4096]{1,0}, bf16[4096,14336]{1,0}, bf16[14336,4096]{1,0}, bf16[4096,4096]{1,0}, bf16[6144,4096]{1,0}, /*index=25*/bf16[4096,14336]{1,0}, bf16[14336,4096]{1,0}, bf16[4096,4096]{1,0}, bf16[6144,4096]{1,0}, bf16[4096,14336]{1,0}, /*index=30*/bf16[14336,4096]{1,0}, bf16[4096,4096]{1,0}, bf16[6144,4096]{1,0}, bf16[4096,14336]{1,0}, bf16[14336,4096]{1,0}, /*index=35*/bf16[4096,4096]{1,0}, bf16[6144,4096]{1,0}, bf16[4096,14336]{1,0}, bf16[14336,4096]{1,0}, bf16[4096,4096]{1,0}, /*index=40*/bf16[6144,4096]{1,0}, bf16[4096,14336]{1,0}, bf16[14336,4096]{1,0}, bf16[4096,4096]{1,0}, bf16[6144,4096]{1,0}, /*index=45*/bf16[4096,14336]{1,0}, bf16[14336,4096]{1,0}, bf16[4096,4096]{1,0}, bf16[6144,4096]{1,0}, bf16[4096,14336]{1,0}, /*index=50*/bf16[14336,4096]{1,0}, bf16[4096,4096]{1,0}, bf16[6144,4096]{1,0}, bf16[4096,14336]{1,0}, bf16[14336,4096]{1,0}, /*index=55*/bf16[4096,4096]{1,0}, bf16[6144,4096]{1,0}, bf16[4096,14336]{1,0}, bf16[14336,4096]{1,0}, bf16[4096,4096]{1,0}, /*index=60*/bf16[6144,4096]{1,0}, bf16[4096,14336]{1,0}, bf16[14336,4096]{1,0}, bf16[4096,4096]{1,0}, bf16[6144,4096]{1,0}, /*index=65*/bf16[4096,14336]{1,0}, bf16[14336,4096]{1,0}, bf16[4096,4096]{1,0}, bf16[6144,4096]{1,0}, bf16[4096,14336]{1,0}, /*index=70*/bf16[14336,4096]{1,0}, bf16[4096,4096]{1,0}, bf16[6144,4096]{1,0}, bf16[4096,14336]{1,0}, bf16[14336,4096]{1,0}, /*index=75*/bf16[4096,4096]{1,0}, bf16[6144,4096]{1,0}, bf16[4096,14336]{1,0}, bf16[14336,4096]{1,0}, bf16[4096,4096]{1,0}, /*index=80*/bf16[6144,4096]{1,0}, bf16[4096,14336]{1,0}, bf16[14336,4096]{1,0}, bf16[4096,4096]{1,0}, bf16[6144,4096]{1,0}, /*index=85*/bf16[4096,14336]{1,0}, bf16[14336,4096]{1,0}, bf16[4096,4096]{1,0}, bf16[6144,4096]{1,0}, bf16[4096,14336]{1,0}, /*index=90*/bf16[14336,4096]{1,0}, bf16[4096,4096]{1,0}, bf16[6144,4096]{1,0}, bf16[4096,14336]{1,0}, bf16[14336,4096]{1,0}, /*index=95*/bf16[4096,4096]{1,0}, bf16[6144,4096]{1,0}, bf16[4096,14336]{1,0}, bf16[14336,4096]{1,0}, bf16[4096,4096]{1,0}, /*index=100*/bf16[6144,4096]{1,0}, bf16[4096,14336]{1,0}, bf16[14336,4096]{1,0}, bf16[4096,4096]{1,0}, bf16[6144,4096]{1,0}, /*index=105*/bf16[4096,14336]{1,0}, bf16[14336,4096]{1,0}, bf16[4096,4096]{1,0}, bf16[6144,4096]{1,0}, bf16[4096,14336]{1,0}, /*index=110*/bf16[14336,4096]{1,0}, bf16[4096,4096]{1,0}, bf16[6144,4096]{1,0}, bf16[4096,14336]{1,0}, bf16[14336,4096]{1,0}, /*index=115*/bf16[4096,4096]{1,0}, bf16[6144,4096]{1,0}, bf16[4096,14336]{1,0}, bf16[14336,4096]{1,0}, bf16[4096,4096]{1,0}, /*index=120*/bf16[6144,4096]{1,0}, bf16[4096,14336]{1,0}, bf16[14336,4096]{1,0}, bf16[4096,4096]{1,0}, bf16[6144,4096]{1,0}, /*index=125*/bf16[4096,14336]{1,0}, bf16[14336,4096]{1,0}, bf16[4096,4096]{1,0}, bf16[6144,4096]{1,0}, bf16[4096,14336]{1,0}, /*index=130*/bf16[14336,4096]{1,0}, bf16[4096,4096]{1,0}, bf16[6144,4096]{1,0}, bf16[4096]{0}, bf16[4096,4096]{1,0}, /*index=135*/bf16[4096]{0}, bf16[4096,4096]{1,0}, bf16[4096]{0}, bf16[1024]{0}, bf16[1024]{0}, /*index=140*/bf16[1024,4096]{1,0}, bf16[4096]{0}, bf16[4096,1024]{1,0}, bf16[1024]{0}, bf16[1024]{0}, /*index=145*/bf16[1024]{0}, bf16[1024,1024]{1,0}, bf16[3072]{0}, bf16[3072,1024]{1,0}, bf16[1024]{0}, /*index=150*/bf16[1024]{0}, bf16[1024]{0}, bf16[1024,4096]{1,0}, bf16[4096]{0}, bf16[4096,1024]{1,0}, /*index=155*/bf16[1024]{0}, bf16[1024]{0}, bf16[1024]{0}, bf16[1024,1024]{1,0}, bf16[3072]{0}, /*index=160*/bf16[3072,1024]{1,0}, bf16[1024]{0}, bf16[1024]{0}, bf16[1024]{0}, bf16[1024,4096]{1,0}, /*index=165*/bf16[4096]{0}, bf16[4096,1024]{1,0}, bf16[1024]{0}, bf16[1024]{0}, bf16[1024]{0}, /*index=170*/bf16[1024,1024]{1,0}, bf16[3072]{0}, bf16[3072,1024]{1,0}, bf16[1024]{0}, bf16[1024]{0}, /*index=175*/bf16[1024]{0}, bf16[1024,4096]{1,0}, bf16[4096]{0}, bf16[4096,1024]{1,0}, bf16[1024]{0}, /*index=180*/bf16[1024]{0}, bf16[1024]{0}, bf16[1024,1024]{1,0}, bf16[3072]{0}, bf16[3072,1024]{1,0}, /*index=185*/bf16[1024]{0}, bf16[1024]{0}, bf16[1024]{0}, bf16[1024,4096]{1,0}, bf16[4096]{0}, /*index=190*/bf16[4096,1024]{1,0}, bf16[1024]{0}, bf16[1024]{0}, bf16[1024]{0}, bf16[1024,1024]{1,0}, /*index=195*/bf16[3072]{0}, bf16[3072,1024]{1,0}, bf16[1024]{0}, bf16[1024]{0}, bf16[1024]{0}, /*index=200*/bf16[1024,4096]{1,0}, bf16[4096]{0}, bf16[4096,1024]{1,0}, bf16[1024]{0}, bf16[1024]{0}, /*index=205*/bf16[1024]{0}, bf16[1024,1024]{1,0}, bf16[3072]{0}, bf16[3072,1024]{1,0}, bf16[1024]{0}, /*index=210*/bf16[1024]{0}, bf16[1024]{0}, bf16[1024,4096]{1,0}, bf16[4096]{0}, bf16[4096,1024]{1,0}, /*index=215*/bf16[1024]{0}, bf16[1024]{0}, bf16[1024]{0}, bf16[1024,1024]{1,0}, bf16[3072]{0}, /*index=220*/bf16[3072,1024]{1,0}, bf16[1024]{0}, bf16[1024]{0}, bf16[1024]{0}, bf16[1024,4096]{1,0}, /*index=225*/bf16[4096]{0}, bf16[4096,1024]{1,0}, bf16[1024]{0}, bf16[1024]{0}, bf16[1024]{0}, /*index=230*/bf16[1024,1024]{1,0}, bf16[3072]{0}, bf16[3072,1024]{1,0}, bf16[1024]{0}, bf16[1024]{0}, /*index=235*/bf16[1024]{0}, bf16[1024,4096]{1,0}, bf16[4096]{0}, bf16[4096,1024]{1,0}, bf16[1024]{0}, /*index=240*/bf16[1024]{0}, bf16[1024]{0}, bf16[1024,1024]{1,0}, bf16[3072]{0}, bf16[3072,1024]{1,0}, /*index=245*/bf16[1024]{0}, bf16[1024]{0}, bf16[1024]{0}, bf16[1024,4096]{1,0}, bf16[4096]{0}, /*index=250*/bf16[4096,1024]{1,0}, bf16[1024]{0}, bf16[1024]{0}, bf16[1024]{0}, bf16[1024,1024]{1,0}, /*index=255*/bf16[3072]{0}, bf16[3072,1024]{1,0}, bf16[1024]{0}, bf16[1024]{0}, bf16[1024]{0}, /*index=260*/bf16[1024,4096]{1,0}, bf16[4096]{0}, bf16[4096,1024]{1,0}, bf16[1024]{0}, bf16[1024]{0}, /*index=265*/bf16[1024]{0}, bf16[1024,1024]{1,0}, bf16[3072]{0}, bf16[3072,1024]{1,0}, bf16[1024]{0}, /*index=270*/bf16[1024]{0}, bf16[1024]{0}, bf16[1024,4096]{1,0}, bf16[4096]{0}, bf16[4096,1024]{1,0}, /*index=275*/bf16[1024]{0}, bf16[1024]{0}, bf16[1024]{0}, bf16[1024,1024]{1,0}, bf16[3072]{0}, /*index=280*/bf16[3072,1024]{1,0}, bf16[1024]{0}, bf16[1024]{0}, bf16[1024]{0}, bf16[1024,4096]{1,0}, /*index=285*/bf16[4096]{0}, bf16[4096,1024]{1,0}, bf16[1024]{0}, bf16[1024]{0}, bf16[1024]{0}, /*index=290*/bf16[1024,1024]{1,0}, bf16[3072]{0}, bf16[3072,1024]{1,0}, bf16[1024]{0}, bf16[1024]{0}, /*index=295*/bf16[1024]{0}, bf16[1024,4096]{1,0}, bf16[4096]{0}, bf16[4096,1024]{1,0}, bf16[1024]{0}, /*index=300*/bf16[1024]{0}, bf16[1024]{0}, bf16[1024,1024]{1,0}, bf16[3072]{0}, bf16[3072,1024]{1,0}, /*index=305*/bf16[1024]{0}, bf16[1024]{0}, bf16[1024]{0}, bf16[1024,4096]{1,0}, bf16[4096]{0}, /*index=310*/bf16[4096,1024]{1,0}, bf16[1024]{0}, bf16[1024]{0}, bf16[1024]{0}, bf16[1024,1024]{1,0}, /*index=315*/bf16[3072]{0}, bf16[3072,1024]{1,0}, bf16[1024]{0}, bf16[1024]{0}, bf16[1024]{0}, /*index=320*/bf16[1024,4096]{1,0}, bf16[4096]{0}, bf16[4096,1024]{1,0}, bf16[1024]{0}, bf16[1024]{0}, /*index=325*/bf16[1024]{0}, bf16[1024,1024]{1,0}, bf16[3072]{0}, bf16[3072,1024]{1,0}, bf16[1024]{0}, /*index=330*/bf16[1024]{0}, bf16[1024]{0}, bf16[1024,4096]{1,0}, bf16[4096]{0}, bf16[4096,1024]{1,0}, /*index=335*/bf16[1024]{0}, bf16[1024]{0}, bf16[1024]{0}, bf16[1024,1024]{1,0}, bf16[3072]{0}, /*index=340*/bf16[3072,1024]{1,0}, bf16[1024]{0}, bf16[1024]{0}, bf16[1024]{0}, bf16[1024,4096]{1,0}, /*index=345*/bf16[4096]{0}, bf16[4096,1024]{1,0}, bf16[1024]{0}, bf16[1024]{0}, bf16[1024]{0}, /*index=350*/bf16[1024,1024]{1,0}, bf16[3072]{0}, bf16[3072,1024]{1,0}, bf16[1024]{0}, bf16[1024]{0}, /*index=355*/bf16[1024]{0}, bf16[1024,4096]{1,0}, bf16[4096]{0}, bf16[4096,1024]{1,0}, bf16[1024]{0}, /*index=360*/bf16[1024]{0}, bf16[1024]{0}, bf16[1024,1024]{1,0}, bf16[3072]{0}, bf16[3072,1024]{1,0}, /*index=365*/bf16[1024]{0}, bf16[1024]{0}, bf16[1024]{0}, bf16[1024,4096]{1,0}, bf16[4096]{0}, /*index=370*/bf16[4096,1024]{1,0}, bf16[1024]{0}, bf16[1024]{0}, bf16[1024]{0}, bf16[1024,1024]{1,0}, /*index=375*/bf16[3072]{0}, bf16[3072,1024]{1,0}, bf16[1024]{0}, bf16[1024]{0}, bf16[1024]{0}, /*index=380*/bf16[1024,4096]{1,0}, bf16[4096]{0}, bf16[4096,1024]{1,0}, bf16[1024]{0}, bf16[1024]{0}, /*index=385*/bf16[1024]{0}, bf16[1024,1024]{1,0}, bf16[3072]{0}, bf16[3072,1024]{1,0}, bf16[1024]{0}, /*index=390*/bf16[1024]{0}, bf16[1024]{0}, bf16[1024,4096]{1,0}, bf16[4096]{0}, bf16[4096,1024]{1,0}, /*index=395*/bf16[1024]{0}, bf16[1024]{0}, bf16[1024]{0}, bf16[1024,1024]{1,0}, bf16[3072]{0}, /*index=400*/bf16[3072,1024]{1,0}, bf16[1024]{0}, bf16[1024]{0}, bf16[1024]{0}, bf16[1024,4096]{1,0}, /*index=405*/bf16[4096]{0}, bf16[4096,1024]{1,0}, bf16[1024]{0}, bf16[1024]{0}, bf16[1024]{0}, /*index=410*/bf16[1024,1024]{1,0}, bf16[3072]{0}, bf16[3072,1024]{1,0}, bf16[1024]{0}, bf16[1024]{0}, /*index=415*/bf16[1024]{0}, bf16[1024,4096]{1,0}, bf16[4096]{0}, bf16[4096,1024]{1,0}, bf16[1024]{0}, /*index=420*/bf16[1024]{0}, bf16[1024]{0}, bf16[1024,1024]{1,0}, bf16[3072]{0}, bf16[3072,1024]{1,0}, /*index=425*/bf16[1024]{0}, f32[1,1024,32,32]{1,3,2,0}, bf16[1,1025,1024]{2,1,0}, bf16[1024]{0}, bf16[1024,3,14,14]{0,3,2,1}, /*index=430*/bf16[1,3,448,448]{3,2,1,0}, bf16[1,1,1024]{2,1,0}, bf16[1024]{0}, f32[], bf16[1024]{0}, /*index=435*/bf16[1024]{0}, bf16[1024]{0}, bf16[1024]{0}, bf16[1024]{0}, bf16[1024]{0}, /*index=440*/bf16[1024]{0}, bf16[1024]{0}, bf16[1024]{0}, bf16[1024]{0}, bf16[1024]{0}, /*index=445*/bf16[1024]{0}, bf16[1024]{0}, bf16[1024]{0}, bf16[1024]{0}, bf16[1024]{0}, /*index=450*/bf16[1024]{0}, bf16[1024]{0}, bf16[1024]{0}, bf16[1024]{0}, bf16[1024]{0}, /*index=455*/bf16[1024]{0}, bf16[1024]{0}, bf16[1024]{0}, bf16[1024]{0}, bf16[1024]{0}, /*index=460*/bf16[1024]{0}, bf16[1024]{0}, bf16[1024]{0}, bf16[1024]{0}, bf16[1024]{0}, /*index=465*/bf16[1024]{0}, bf16[1024]{0}, bf16[1024]{0}, bf16[1024]{0}, bf16[1024]{0}, /*index=470*/bf16[1024]{0}, bf16[1024]{0}, bf16[1024]{0}, bf16[1024]{0}, bf16[1024]{0}, /*index=475*/bf16[1024]{0}, bf16[1024]{0}, bf16[1024]{0}, bf16[1024]{0}, bf16[1024]{0}, /*index=480*/bf16[1024]{0}, bf16[4096]{0}, s64[256,1]{0,1}, s64[], s64[1,310]{1,0}, /*index=485*/bf16[92553,4096]{1,0}, bf16[4096]{0}, f32[], f64[], s64[1,310]{1,0}, /*index=490*/bf16[], bf16[32768,128]{1,0}, bf16[32768,128]{1,0}, bf16[4096]{0}, bf16[14336,4096]{1,0}, /*index=495*/bf16[4096]{0}, bf16[32768,128]{1,0}, bf16[32768,128]{1,0}, bf16[4096]{0}, bf16[14336,4096]{1,0}, /*index=500*/bf16[4096]{0}, bf16[32768,128]{1,0}, bf16[32768,128]{1,0}, bf16[4096]{0}, bf16[14336,4096]{1,0}, /*index=505*/bf16[4096]{0}, bf16[32768,128]{1,0}, bf16[32768,128]{1,0}, bf16[4096]{0}, bf16[14336,4096]{1,0}, /*index=510*/bf16[4096]{0}, bf16[32768,128]{1,0}, bf16[32768,128]{1,0}, bf16[4096]{0}, bf16[14336,4096]{1,0}, /*index=515*/bf16[4096]{0}, bf16[32768,128]{1,0}, bf16[32768,128]{1,0}, bf16[4096]{0}, bf16[14336,4096]{1,0}, /*index=520*/bf16[4096]{0}, bf16[32768,128]{1,0}, bf16[32768,128]{1,0}, bf16[4096]{0}, bf16[14336,4096]{1,0}, /*index=525*/bf16[4096]{0}, bf16[32768,128]{1,0}, bf16[32768,128]{1,0}, bf16[4096]{0}, bf16[14336,4096]{1,0}, /*index=530*/bf16[4096]{0}, bf16[32768,128]{1,0}, bf16[32768,128]{1,0}, bf16[4096]{0}, bf16[14336,4096]{1,0}, /*index=535*/bf16[4096]{0}, bf16[32768,128]{1,0}, bf16[32768,128]{1,0}, bf16[4096]{0}, bf16[14336,4096]{1,0}, /*index=540*/bf16[4096]{0}, bf16[32768,128]{1,0}, bf16[32768,128]{1,0}, bf16[4096]{0}, bf16[14336,4096]{1,0}, /*index=545*/bf16[4096]{0}, bf16[32768,128]{1,0}, bf16[32768,128]{1,0}, bf16[4096]{0}, bf16[14336,4096]{1,0}, /*index=550*/bf16[4096]{0}, bf16[32768,128]{1,0}, bf16[32768,128]{1,0}, bf16[4096]{0}, bf16[14336,4096]{1,0}, /*index=555*/bf16[4096]{0}, bf16[32768,128]{1,0}, bf16[32768,128]{1,0}, bf16[4096]{0}, bf16[14336,4096]{1,0}, /*index=560*/bf16[4096]{0}, bf16[32768,128]{1,0}, bf16[32768,128]{1,0}, bf16[4096]{0}, bf16[14336,4096]{1,0}, /*index=565*/bf16[4096]{0}, bf16[32768,128]{1,0}, bf16[32768,128]{1,0}, bf16[4096]{0}, bf16[14336,4096]{1,0}, /*index=570*/bf16[4096]{0}, bf16[32768,128]{1,0}, bf16[32768,128]{1,0}, bf16[4096]{0}, bf16[14336,4096]{1,0}, /*index=575*/bf16[4096]{0}, bf16[32768,128]{1,0}, bf16[32768,128]{1,0}, bf16[4096]{0}, bf16[14336,4096]{1,0}, /*index=580*/bf16[4096]{0}, bf16[32768,128]{1,0}, bf16[32768,128]{1,0}, bf16[4096]{0}, bf16[14336,4096]{1,0}, /*index=585*/bf16[4096]{0}, bf16[32768,128]{1,0}, bf16[32768,128]{1,0}, bf16[4096]{0}, bf16[14336,4096]{1,0}, /*index=590*/bf16[4096]{0}, bf16[32768,128]{1,0}, bf16[32768,128]{1,0}, bf16[4096]{0}, bf16[14336,4096]{1,0}, /*index=595*/bf16[4096]{0}, bf16[32768,128]{1,0}, bf16[32768,128]{1,0}, bf16[4096]{0}, bf16[14336,4096]{1,0}, /*index=600*/bf16[4096]{0}, bf16[32768,128]{1,0}, bf16[32768,128]{1,0}, bf16[4096]{0}, bf16[14336,4096]{1,0}, /*index=605*/bf16[4096]{0}, bf16[32768,128]{1,0}, bf16[32768,128]{1,0}, bf16[4096]{0}, bf16[14336,4096]{1,0}, /*index=610*/bf16[4096]{0}, bf16[32768,128]{1,0}, bf16[32768,128]{1,0}, bf16[4096]{0}, bf16[14336,4096]{1,0}, /*index=615*/bf16[4096]{0}, bf16[32768,128]{1,0}, bf16[32768,128]{1,0}, bf16[4096]{0}, bf16[14336,4096]{1,0}, /*index=620*/bf16[4096]{0}, bf16[32768,128]{1,0}, bf16[32768,128]{1,0}, bf16[4096]{0}, bf16[14336,4096]{1,0}, /*index=625*/bf16[4096]{0}, bf16[32768,128]{1,0}, bf16[32768,128]{1,0}, bf16[4096]{0}, bf16[14336,4096]{1,0}, /*index=630*/bf16[4096]{0}, bf16[32768,128]{1,0}, bf16[32768,128]{1,0}, bf16[4096]{0}, bf16[14336,4096]{1,0}, /*index=635*/bf16[4096]{0}, bf16[32768,128]{1,0}, bf16[32768,128]{1,0}, bf16[4096]{0}, bf16[14336,4096]{1,0}, /*index=640*/bf16[4096]{0}, bf16[32768,128]{1,0}, bf16[32768,128]{1,0}, bf16[4096]{0}, bf16[14336,4096]{1,0}, /*index=645*/bf16[4096]{0}, bf16[32768,128]{1,0}, bf16[32768,128]{1,0}, bf16[4096]{0}, bf16[14336,4096]{1,0}, /*index=650*/bf16[4096]{0})->(s64[1]{0})}

%MaxComputation.2158 (x.2159: bf16[], y.2160: bf16[]) -> bf16[] {
  %x.2159 = bf16[] parameter(0)
  %y.2160 = bf16[] parameter(1)
  ROOT %maximum.2161 = bf16[] maximum(bf16[] %x.2159, bf16[] %y.2160)
}

%AddComputation.2167 (x.2168: bf16[], y.2169: bf16[]) -> bf16[] {
  %x.2168 = bf16[] parameter(0)
  %y.2169 = bf16[] parameter(1)
  ROOT %add.2170 = bf16[] add(bf16[] %x.2168, bf16[] %y.2169)
}

%MaxComputation.2287 (x.2288: bf16[], y.2289: bf16[]) -> bf16[] {
  %x.2288 = bf16[] parameter(0)
  %y.2289 = bf16[] parameter(1)
  ROOT %maximum.2290 = bf16[] maximum(bf16[] %x.2288, bf16[] %y.2289)
}

%AddComputation.2296 (x.2297: bf16[], y.2298: bf16[]) -> bf16[] {
  %x.2297 = bf16[] parameter(0)
  %y.2298 = bf16[] parameter(1)
  ROOT %add.2299 = bf16[] add(bf16[] %x.2297, bf16[] %y.2298)
}

%MaxComputation.2416 (x.2417: bf16[], y.2418: bf16[]) -> bf16[] {
  %x.2417 = bf16[] parameter(0)
  %y.2418 = bf16[] parameter(1)
  ROOT %maximum.2419 = bf16[] maximum(bf16[] %x.2417, bf16[] %y.2418)
}

%AddComputation.2425 (x.2426: bf16[], y.2427: bf16[]) -> bf16[] {
  %x.2426 = bf16[] parameter(0)
  %y.2427 = bf16[] parameter(1)
  ROOT %add.2428 = bf16[] add(bf16[] %x.2426, bf16[] %y.2427)
}

%MaxComputation.2545 (x.2546: bf16[], y.2547: bf16[]) -> bf16[] {
  %x.2546 = bf16[] parameter(0)
  %y.2547 = bf16[] parameter(1)
  ROOT %maximum.2548 = bf16[] maximum(bf16[] %x.2546, bf16[] %y.2547)
}

%AddComputation.2554 (x.2555: bf16[], y.2556: bf16[]) -> bf16[] {
  %x.2555 = bf16[] parameter(0)
  %y.2556 = bf16[] parameter(1)
  ROOT %add.2557 = bf16[] add(bf16[] %x.2555, bf16[] %y.2556)
}

%MaxComputation.2674 (x.2675: bf16[], y.2676: bf16[]) -> bf16[] {
  %x.2675 = bf16[] parameter(0)
  %y.2676 = bf16[] parameter(1)
  ROOT %maximum.2677 = bf16[] maximum(bf16[] %x.2675, bf16[] %y.2676)
}

%AddComputation.2683 (x.2684: bf16[], y.2685: bf16[]) -> bf16[] {
  %x.2684 = bf16[] parameter(0)
  %y.2685 = bf16[] parameter(1)
  ROOT %add.2686 = bf16[] add(bf16[] %x.2684, bf16[] %y.2685)
}

%MaxComputation.2803 (x.2804: bf16[], y.2805: bf16[]) -> bf16[] {
  %x.2804 = bf16[] parameter(0)
  %y.2805 = bf16[] parameter(1)
  ROOT %maximum.2806 = bf16[] maximum(bf16[] %x.2804, bf16[] %y.2805)
}

%AddComputation.2812 (x.2813: bf16[], y.2814: bf16[]) -> bf16[] {
  %x.2813 = bf16[] parameter(0)
  %y.2814 = bf16[] parameter(1)
  ROOT %add.2815 = bf16[] add(bf16[] %x.2813, bf16[] %y.2814)
}

%MaxComputation.2932 (x.2933: bf16[], y.2934: bf16[]) -> bf16[] {
  %x.2933 = bf16[] parameter(0)
  %y.2934 = bf16[] parameter(1)
  ROOT %maximum.2935 = bf16[] maximum(bf16[] %x.2933, bf16[] %y.2934)
}

%AddComputation.2941 (x.2942: bf16[], y.2943: bf16[]) -> bf16[] {
  %x.2942 = bf16[] parameter(0)
  %y.2943 = bf16[] parameter(1)
  ROOT %add.2944 = bf16[] add(bf16[] %x.2942, bf16[] %y.2943)
}

%MaxComputation.3061 (x.3062: bf16[], y.3063: bf16[]) -> bf16[] {
  %x.3062 = bf16[] parameter(0)
  %y.3063 = bf16[] parameter(1)
  ROOT %maximum.3064 = bf16[] maximum(bf16[] %x.3062, bf16[] %y.3063)
}

%AddComputation.3070 (x.3071: bf16[], y.3072: bf16[]) -> bf16[] {
  %x.3071 = bf16[] parameter(0)
  %y.3072 = bf16[] parameter(1)
  ROOT %add.3073 = bf16[] add(bf16[] %x.3071, bf16[] %y.3072)
}

%MaxComputation.3190 (x.3191: bf16[], y.3192: bf16[]) -> bf16[] {
  %x.3191 = bf16[] parameter(0)
  %y.3192 = bf16[] parameter(1)
  ROOT %maximum.3193 = bf16[] maximum(bf16[] %x.3191, bf16[] %y.3192)
}

%AddComputation.3199 (x.3200: bf16[], y.3201: bf16[]) -> bf16[] {
  %x.3200 = bf16[] parameter(0)
  %y.3201 = bf16[] parameter(1)
  ROOT %add.3202 = bf16[] add(bf16[] %x.3200, bf16[] %y.3201)
}

%MaxComputation.3319 (x.3320: bf16[], y.3321: bf16[]) -> bf16[] {
  %x.3320 = bf16[] parameter(0)
  %y.3321 = bf16[] parameter(1)
  ROOT %maximum.3322 = bf16[] maximum(bf16[] %x.3320, bf16[] %y.3321)
}

%AddComputation.3328 (x.3329: bf16[], y.3330: bf16[]) -> bf16[] {
  %x.3329 = bf16[] parameter(0)
  %y.3330 = bf16[] parameter(1)
  ROOT %add.3331 = bf16[] add(bf16[] %x.3329, bf16[] %y.3330)
}

%MaxComputation.3448 (x.3449: bf16[], y.3450: bf16[]) -> bf16[] {
  %x.3449 = bf16[] parameter(0)
  %y.3450 = bf16[] parameter(1)
  ROOT %maximum.3451 = bf16[] maximum(bf16[] %x.3449, bf16[] %y.3450)
}

%AddComputation.3457 (x.3458: bf16[], y.3459: bf16[]) -> bf16[] {
  %x.3458 = bf16[] parameter(0)
  %y.3459 = bf16[] parameter(1)
  ROOT %add.3460 = bf16[] add(bf16[] %x.3458, bf16[] %y.3459)
}

%MaxComputation.3577 (x.3578: bf16[], y.3579: bf16[]) -> bf16[] {
  %x.3578 = bf16[] parameter(0)
  %y.3579 = bf16[] parameter(1)
  ROOT %maximum.3580 = bf16[] maximum(bf16[] %x.3578, bf16[] %y.3579)
}

%AddComputation.3586 (x.3587: bf16[], y.3588: bf16[]) -> bf16[] {
  %x.3587 = bf16[] parameter(0)
  %y.3588 = bf16[] parameter(1)
  ROOT %add.3589 = bf16[] add(bf16[] %x.3587, bf16[] %y.3588)
}

%MaxComputation.3706 (x.3707: bf16[], y.3708: bf16[]) -> bf16[] {
  %x.3707 = bf16[] parameter(0)
  %y.3708 = bf16[] parameter(1)
  ROOT %maximum.3709 = bf16[] maximum(bf16[] %x.3707, bf16[] %y.3708)
}

%AddComputation.3715 (x.3716: bf16[], y.3717: bf16[]) -> bf16[] {
  %x.3716 = bf16[] parameter(0)
  %y.3717 = bf16[] parameter(1)
  ROOT %add.3718 = bf16[] add(bf16[] %x.3716, bf16[] %y.3717)
}

%MaxComputation.3835 (x.3836: bf16[], y.3837: bf16[]) -> bf16[] {
  %x.3836 = bf16[] parameter(0)
  %y.3837 = bf16[] parameter(1)
  ROOT %maximum.3838 = bf16[] maximum(bf16[] %x.3836, bf16[] %y.3837)
}

%AddComputation.3844 (x.3845: bf16[], y.3846: bf16[]) -> bf16[] {
  %x.3845 = bf16[] parameter(0)
  %y.3846 = bf16[] parameter(1)
  ROOT %add.3847 = bf16[] add(bf16[] %x.3845, bf16[] %y.3846)
}

%MaxComputation.3964 (x.3965: bf16[], y.3966: bf16[]) -> bf16[] {
  %x.3965 = bf16[] parameter(0)
  %y.3966 = bf16[] parameter(1)
  ROOT %maximum.3967 = bf16[] maximum(bf16[] %x.3965, bf16[] %y.3966)
}

%AddComputation.3973 (x.3974: bf16[], y.3975: bf16[]) -> bf16[] {
  %x.3974 = bf16[] parameter(0)
  %y.3975 = bf16[] parameter(1)
  ROOT %add.3976 = bf16[] add(bf16[] %x.3974, bf16[] %y.3975)
}

%MaxComputation.4093 (x.4094: bf16[], y.4095: bf16[]) -> bf16[] {
  %x.4094 = bf16[] parameter(0)
  %y.4095 = bf16[] parameter(1)
  ROOT %maximum.4096 = bf16[] maximum(bf16[] %x.4094, bf16[] %y.4095)
}

%AddComputation.4102 (x.4103: bf16[], y.4104: bf16[]) -> bf16[] {
  %x.4103 = bf16[] parameter(0)
  %y.4104 = bf16[] parameter(1)
  ROOT %add.4105 = bf16[] add(bf16[] %x.4103, bf16[] %y.4104)
}

%MaxComputation.4222 (x.4223: bf16[], y.4224: bf16[]) -> bf16[] {
  %x.4223 = bf16[] parameter(0)
  %y.4224 = bf16[] parameter(1)
  ROOT %maximum.4225 = bf16[] maximum(bf16[] %x.4223, bf16[] %y.4224)
}

%AddComputation.4231 (x.4232: bf16[], y.4233: bf16[]) -> bf16[] {
  %x.4232 = bf16[] parameter(0)
  %y.4233 = bf16[] parameter(1)
  ROOT %add.4234 = bf16[] add(bf16[] %x.4232, bf16[] %y.4233)
}

%MaxComputation.4351 (x.4352: bf16[], y.4353: bf16[]) -> bf16[] {
  %x.4352 = bf16[] parameter(0)
  %y.4353 = bf16[] parameter(1)
  ROOT %maximum.4354 = bf16[] maximum(bf16[] %x.4352, bf16[] %y.4353)
}

%AddComputation.4360 (x.4361: bf16[], y.4362: bf16[]) -> bf16[] {
  %x.4361 = bf16[] parameter(0)
  %y.4362 = bf16[] parameter(1)
  ROOT %add.4363 = bf16[] add(bf16[] %x.4361, bf16[] %y.4362)
}

%MaxComputation.4480 (x.4481: bf16[], y.4482: bf16[]) -> bf16[] {
  %x.4481 = bf16[] parameter(0)
  %y.4482 = bf16[] parameter(1)
  ROOT %maximum.4483 = bf16[] maximum(bf16[] %x.4481, bf16[] %y.4482)
}

%AddComputation.4489 (x.4490: bf16[], y.4491: bf16[]) -> bf16[] {
  %x.4490 = bf16[] parameter(0)
  %y.4491 = bf16[] parameter(1)
  ROOT %add.4492 = bf16[] add(bf16[] %x.4490, bf16[] %y.4491)
}

%MaxComputation.4609 (x.4610: bf16[], y.4611: bf16[]) -> bf16[] {
  %x.4610 = bf16[] parameter(0)
  %y.4611 = bf16[] parameter(1)
  ROOT %maximum.4612 = bf16[] maximum(bf16[] %x.4610, bf16[] %y.4611)
}

%AddComputation.4618 (x.4619: bf16[], y.4620: bf16[]) -> bf16[] {
  %x.4619 = bf16[] parameter(0)
  %y.4620 = bf16[] parameter(1)
  ROOT %add.4621 = bf16[] add(bf16[] %x.4619, bf16[] %y.4620)
}

%MaxComputation.4738 (x.4739: bf16[], y.4740: bf16[]) -> bf16[] {
  %x.4739 = bf16[] parameter(0)
  %y.4740 = bf16[] parameter(1)
  ROOT %maximum.4741 = bf16[] maximum(bf16[] %x.4739, bf16[] %y.4740)
}

%AddComputation.4747 (x.4748: bf16[], y.4749: bf16[]) -> bf16[] {
  %x.4748 = bf16[] parameter(0)
  %y.4749 = bf16[] parameter(1)
  ROOT %add.4750 = bf16[] add(bf16[] %x.4748, bf16[] %y.4749)
}

%MaxComputation.4867 (x.4868: bf16[], y.4869: bf16[]) -> bf16[] {
  %x.4868 = bf16[] parameter(0)
  %y.4869 = bf16[] parameter(1)
  ROOT %maximum.4870 = bf16[] maximum(bf16[] %x.4868, bf16[] %y.4869)
}

%AddComputation.4876 (x.4877: bf16[], y.4878: bf16[]) -> bf16[] {
  %x.4877 = bf16[] parameter(0)
  %y.4878 = bf16[] parameter(1)
  ROOT %add.4879 = bf16[] add(bf16[] %x.4877, bf16[] %y.4878)
}

%MaxComputation.4996 (x.4997: bf16[], y.4998: bf16[]) -> bf16[] {
  %x.4997 = bf16[] parameter(0)
  %y.4998 = bf16[] parameter(1)
  ROOT %maximum.4999 = bf16[] maximum(bf16[] %x.4997, bf16[] %y.4998)
}

%AddComputation.5005 (x.5006: bf16[], y.5007: bf16[]) -> bf16[] {
  %x.5006 = bf16[] parameter(0)
  %y.5007 = bf16[] parameter(1)
  ROOT %add.5008 = bf16[] add(bf16[] %x.5006, bf16[] %y.5007)
}

%MaxComputation.5125 (x.5126: bf16[], y.5127: bf16[]) -> bf16[] {
  %x.5126 = bf16[] parameter(0)
  %y.5127 = bf16[] parameter(1)
  ROOT %maximum.5128 = bf16[] maximum(bf16[] %x.5126, bf16[] %y.5127)
}

%AddComputation.5134 (x.5135: bf16[], y.5136: bf16[]) -> bf16[] {
  %x.5135 = bf16[] parameter(0)
  %y.5136 = bf16[] parameter(1)
  ROOT %add.5137 = bf16[] add(bf16[] %x.5135, bf16[] %y.5136)
}

%ScatterCombiner.5283 (p0.5284: bf16[], p1.5285: bf16[]) -> bf16[] {
  %p0.5284 = bf16[] parameter(0)
  ROOT %p1.5285 = bf16[] parameter(1)
}

%AddComputation.5296 (x.5297: f32[], y.5298: f32[]) -> f32[] {
  %x.5297 = f32[] parameter(0)
  %y.5298 = f32[] parameter(1)
  ROOT %add.5299 = f32[] add(f32[] %x.5297, f32[] %y.5298)
}

%AddComputation.5415 (x.5416: s64[], y.5417: s64[]) -> s64[] {
  %x.5416 = s64[] parameter(0)
  %y.5417 = s64[] parameter(1)
  ROOT %add.5418 = s64[] add(s64[] %x.5416, s64[] %y.5417)
}

%MaxComputation.5532 (x.5533: f32[], y.5534: f32[]) -> f32[] {
  %x.5533 = f32[] parameter(0)
  %y.5534 = f32[] parameter(1)
  ROOT %maximum.5535 = f32[] maximum(f32[] %x.5533, f32[] %y.5534)
}

%AddComputation.5541 (x.5542: f32[], y.5543: f32[]) -> f32[] {
  %x.5542 = f32[] parameter(0)
  %y.5543 = f32[] parameter(1)
  ROOT %add.5544 = f32[] add(f32[] %x.5542, f32[] %y.5543)
}

%AddComputation.5566 (x.5567: f32[], y.5568: f32[]) -> f32[] {
  %x.5567 = f32[] parameter(0)
  %y.5568 = f32[] parameter(1)
  ROOT %add.5569 = f32[] add(f32[] %x.5567, f32[] %y.5568)
}

%AddComputation.5621 (x.5622: f32[], y.5623: f32[]) -> f32[] {
  %x.5622 = f32[] parameter(0)
  %y.5623 = f32[] parameter(1)
  ROOT %add.5624 = f32[] add(f32[] %x.5622, f32[] %y.5623)
}

%MaxComputation.5774 (x.5775: f32[], y.5776: f32[]) -> f32[] {
  %x.5775 = f32[] parameter(0)
  %y.5776 = f32[] parameter(1)
  ROOT %maximum.5777 = f32[] maximum(f32[] %x.5775, f32[] %y.5776)
}

%AddComputation.5783 (x.5784: f32[], y.5785: f32[]) -> f32[] {
  %x.5784 = f32[] parameter(0)
  %y.5785 = f32[] parameter(1)
  ROOT %add.5786 = f32[] add(f32[] %x.5784, f32[] %y.5785)
}

%AddComputation.5808 (x.5809: f32[], y.5810: f32[]) -> f32[] {
  %x.5809 = f32[] parameter(0)
  %y.5810 = f32[] parameter(1)
  ROOT %add.5811 = f32[] add(f32[] %x.5809, f32[] %y.5810)
}

%AddComputation.5863 (x.5864: f32[], y.5865: f32[]) -> f32[] {
  %x.5864 = f32[] parameter(0)
  %y.5865 = f32[] parameter(1)
  ROOT %add.5866 = f32[] add(f32[] %x.5864, f32[] %y.5865)
}

%MaxComputation.6016 (x.6017: f32[], y.6018: f32[]) -> f32[] {
  %x.6017 = f32[] parameter(0)
  %y.6018 = f32[] parameter(1)
  ROOT %maximum.6019 = f32[] maximum(f32[] %x.6017, f32[] %y.6018)
}

%AddComputation.6025 (x.6026: f32[], y.6027: f32[]) -> f32[] {
  %x.6026 = f32[] parameter(0)
  %y.6027 = f32[] parameter(1)
  ROOT %add.6028 = f32[] add(f32[] %x.6026, f32[] %y.6027)
}

%AddComputation.6050 (x.6051: f32[], y.6052: f32[]) -> f32[] {
  %x.6051 = f32[] parameter(0)
  %y.6052 = f32[] parameter(1)
  ROOT %add.6053 = f32[] add(f32[] %x.6051, f32[] %y.6052)
}

%AddComputation.6105 (x.6106: f32[], y.6107: f32[]) -> f32[] {
  %x.6106 = f32[] parameter(0)
  %y.6107 = f32[] parameter(1)
  ROOT %add.6108 = f32[] add(f32[] %x.6106, f32[] %y.6107)
}

%MaxComputation.6258 (x.6259: f32[], y.6260: f32[]) -> f32[] {
  %x.6259 = f32[] parameter(0)
  %y.6260 = f32[] parameter(1)
  ROOT %maximum.6261 = f32[] maximum(f32[] %x.6259, f32[] %y.6260)
}

%AddComputation.6267 (x.6268: f32[], y.6269: f32[]) -> f32[] {
  %x.6268 = f32[] parameter(0)
  %y.6269 = f32[] parameter(1)
  ROOT %add.6270 = f32[] add(f32[] %x.6268, f32[] %y.6269)
}

%AddComputation.6292 (x.6293: f32[], y.6294: f32[]) -> f32[] {
  %x.6293 = f32[] parameter(0)
  %y.6294 = f32[] parameter(1)
  ROOT %add.6295 = f32[] add(f32[] %x.6293, f32[] %y.6294)
}

%AddComputation.6347 (x.6348: f32[], y.6349: f32[]) -> f32[] {
  %x.6348 = f32[] parameter(0)
  %y.6349 = f32[] parameter(1)
  ROOT %add.6350 = f32[] add(f32[] %x.6348, f32[] %y.6349)
}

%MaxComputation.6500 (x.6501: f32[], y.6502: f32[]) -> f32[] {
  %x.6501 = f32[] parameter(0)
  %y.6502 = f32[] parameter(1)
  ROOT %maximum.6503 = f32[] maximum(f32[] %x.6501, f32[] %y.6502)
}

%AddComputation.6509 (x.6510: f32[], y.6511: f32[]) -> f32[] {
  %x.6510 = f32[] parameter(0)
  %y.6511 = f32[] parameter(1)
  ROOT %add.6512 = f32[] add(f32[] %x.6510, f32[] %y.6511)
}

%AddComputation.6534 (x.6535: f32[], y.6536: f32[]) -> f32[] {
  %x.6535 = f32[] parameter(0)
  %y.6536 = f32[] parameter(1)
  ROOT %add.6537 = f32[] add(f32[] %x.6535, f32[] %y.6536)
}

%AddComputation.6589 (x.6590: f32[], y.6591: f32[]) -> f32[] {
  %x.6590 = f32[] parameter(0)
  %y.6591 = f32[] parameter(1)
  ROOT %add.6592 = f32[] add(f32[] %x.6590, f32[] %y.6591)
}

%MaxComputation.6742 (x.6743: f32[], y.6744: f32[]) -> f32[] {
  %x.6743 = f32[] parameter(0)
  %y.6744 = f32[] parameter(1)
  ROOT %maximum.6745 = f32[] maximum(f32[] %x.6743, f32[] %y.6744)
}

%AddComputation.6751 (x.6752: f32[], y.6753: f32[]) -> f32[] {
  %x.6752 = f32[] parameter(0)
  %y.6753 = f32[] parameter(1)
  ROOT %add.6754 = f32[] add(f32[] %x.6752, f32[] %y.6753)
}

%AddComputation.6776 (x.6777: f32[], y.6778: f32[]) -> f32[] {
  %x.6777 = f32[] parameter(0)
  %y.6778 = f32[] parameter(1)
  ROOT %add.6779 = f32[] add(f32[] %x.6777, f32[] %y.6778)
}

%AddComputation.6831 (x.6832: f32[], y.6833: f32[]) -> f32[] {
  %x.6832 = f32[] parameter(0)
  %y.6833 = f32[] parameter(1)
  ROOT %add.6834 = f32[] add(f32[] %x.6832, f32[] %y.6833)
}

%MaxComputation.6984 (x.6985: f32[], y.6986: f32[]) -> f32[] {
  %x.6985 = f32[] parameter(0)
  %y.6986 = f32[] parameter(1)
  ROOT %maximum.6987 = f32[] maximum(f32[] %x.6985, f32[] %y.6986)
}

%AddComputation.6993 (x.6994: f32[], y.6995: f32[]) -> f32[] {
  %x.6994 = f32[] parameter(0)
  %y.6995 = f32[] parameter(1)
  ROOT %add.6996 = f32[] add(f32[] %x.6994, f32[] %y.6995)
}

%AddComputation.7018 (x.7019: f32[], y.7020: f32[]) -> f32[] {
  %x.7019 = f32[] parameter(0)
  %y.7020 = f32[] parameter(1)
  ROOT %add.7021 = f32[] add(f32[] %x.7019, f32[] %y.7020)
}

%AddComputation.7073 (x.7074: f32[], y.7075: f32[]) -> f32[] {
  %x.7074 = f32[] parameter(0)
  %y.7075 = f32[] parameter(1)
  ROOT %add.7076 = f32[] add(f32[] %x.7074, f32[] %y.7075)
}

%MaxComputation.7226 (x.7227: f32[], y.7228: f32[]) -> f32[] {
  %x.7227 = f32[] parameter(0)
  %y.7228 = f32[] parameter(1)
  ROOT %maximum.7229 = f32[] maximum(f32[] %x.7227, f32[] %y.7228)
}

%AddComputation.7235 (x.7236: f32[], y.7237: f32[]) -> f32[] {
  %x.7236 = f32[] parameter(0)
  %y.7237 = f32[] parameter(1)
  ROOT %add.7238 = f32[] add(f32[] %x.7236, f32[] %y.7237)
}

%AddComputation.7260 (x.7261: f32[], y.7262: f32[]) -> f32[] {
  %x.7261 = f32[] parameter(0)
  %y.7262 = f32[] parameter(1)
  ROOT %add.7263 = f32[] add(f32[] %x.7261, f32[] %y.7262)
}

%AddComputation.7315 (x.7316: f32[], y.7317: f32[]) -> f32[] {
  %x.7316 = f32[] parameter(0)
  %y.7317 = f32[] parameter(1)
  ROOT %add.7318 = f32[] add(f32[] %x.7316, f32[] %y.7317)
}

%MaxComputation.7468 (x.7469: f32[], y.7470: f32[]) -> f32[] {
  %x.7469 = f32[] parameter(0)
  %y.7470 = f32[] parameter(1)
  ROOT %maximum.7471 = f32[] maximum(f32[] %x.7469, f32[] %y.7470)
}

%AddComputation.7477 (x.7478: f32[], y.7479: f32[]) -> f32[] {
  %x.7478 = f32[] parameter(0)
  %y.7479 = f32[] parameter(1)
  ROOT %add.7480 = f32[] add(f32[] %x.7478, f32[] %y.7479)
}

%AddComputation.7502 (x.7503: f32[], y.7504: f32[]) -> f32[] {
  %x.7503 = f32[] parameter(0)
  %y.7504 = f32[] parameter(1)
  ROOT %add.7505 = f32[] add(f32[] %x.7503, f32[] %y.7504)
}

%AddComputation.7557 (x.7558: f32[], y.7559: f32[]) -> f32[] {
  %x.7558 = f32[] parameter(0)
  %y.7559 = f32[] parameter(1)
  ROOT %add.7560 = f32[] add(f32[] %x.7558, f32[] %y.7559)
}

%MaxComputation.7710 (x.7711: f32[], y.7712: f32[]) -> f32[] {
  %x.7711 = f32[] parameter(0)
  %y.7712 = f32[] parameter(1)
  ROOT %maximum.7713 = f32[] maximum(f32[] %x.7711, f32[] %y.7712)
}

%AddComputation.7719 (x.7720: f32[], y.7721: f32[]) -> f32[] {
  %x.7720 = f32[] parameter(0)
  %y.7721 = f32[] parameter(1)
  ROOT %add.7722 = f32[] add(f32[] %x.7720, f32[] %y.7721)
}

%AddComputation.7744 (x.7745: f32[], y.7746: f32[]) -> f32[] {
  %x.7745 = f32[] parameter(0)
  %y.7746 = f32[] parameter(1)
  ROOT %add.7747 = f32[] add(f32[] %x.7745, f32[] %y.7746)
}

%AddComputation.7799 (x.7800: f32[], y.7801: f32[]) -> f32[] {
  %x.7800 = f32[] parameter(0)
  %y.7801 = f32[] parameter(1)
  ROOT %add.7802 = f32[] add(f32[] %x.7800, f32[] %y.7801)
}

%MaxComputation.7952 (x.7953: f32[], y.7954: f32[]) -> f32[] {
  %x.7953 = f32[] parameter(0)
  %y.7954 = f32[] parameter(1)
  ROOT %maximum.7955 = f32[] maximum(f32[] %x.7953, f32[] %y.7954)
}

%AddComputation.7961 (x.7962: f32[], y.7963: f32[]) -> f32[] {
  %x.7962 = f32[] parameter(0)
  %y.7963 = f32[] parameter(1)
  ROOT %add.7964 = f32[] add(f32[] %x.7962, f32[] %y.7963)
}

%AddComputation.7986 (x.7987: f32[], y.7988: f32[]) -> f32[] {
  %x.7987 = f32[] parameter(0)
  %y.7988 = f32[] parameter(1)
  ROOT %add.7989 = f32[] add(f32[] %x.7987, f32[] %y.7988)
}

%AddComputation.8041 (x.8042: f32[], y.8043: f32[]) -> f32[] {
  %x.8042 = f32[] parameter(0)
  %y.8043 = f32[] parameter(1)
  ROOT %add.8044 = f32[] add(f32[] %x.8042, f32[] %y.8043)
}

%MaxComputation.8194 (x.8195: f32[], y.8196: f32[]) -> f32[] {
  %x.8195 = f32[] parameter(0)
  %y.8196 = f32[] parameter(1)
  ROOT %maximum.8197 = f32[] maximum(f32[] %x.8195, f32[] %y.8196)
}

%AddComputation.8203 (x.8204: f32[], y.8205: f32[]) -> f32[] {
  %x.8204 = f32[] parameter(0)
  %y.8205 = f32[] parameter(1)
  ROOT %add.8206 = f32[] add(f32[] %x.8204, f32[] %y.8205)
}

%AddComputation.8228 (x.8229: f32[], y.8230: f32[]) -> f32[] {
  %x.8229 = f32[] parameter(0)
  %y.8230 = f32[] parameter(1)
  ROOT %add.8231 = f32[] add(f32[] %x.8229, f32[] %y.8230)
}

%AddComputation.8283 (x.8284: f32[], y.8285: f32[]) -> f32[] {
  %x.8284 = f32[] parameter(0)
  %y.8285 = f32[] parameter(1)
  ROOT %add.8286 = f32[] add(f32[] %x.8284, f32[] %y.8285)
}

%MaxComputation.8436 (x.8437: f32[], y.8438: f32[]) -> f32[] {
  %x.8437 = f32[] parameter(0)
  %y.8438 = f32[] parameter(1)
  ROOT %maximum.8439 = f32[] maximum(f32[] %x.8437, f32[] %y.8438)
}

%AddComputation.8445 (x.8446: f32[], y.8447: f32[]) -> f32[] {
  %x.8446 = f32[] parameter(0)
  %y.8447 = f32[] parameter(1)
  ROOT %add.8448 = f32[] add(f32[] %x.8446, f32[] %y.8447)
}

%AddComputation.8470 (x.8471: f32[], y.8472: f32[]) -> f32[] {
  %x.8471 = f32[] parameter(0)
  %y.8472 = f32[] parameter(1)
  ROOT %add.8473 = f32[] add(f32[] %x.8471, f32[] %y.8472)
}

%AddComputation.8525 (x.8526: f32[], y.8527: f32[]) -> f32[] {
  %x.8526 = f32[] parameter(0)
  %y.8527 = f32[] parameter(1)
  ROOT %add.8528 = f32[] add(f32[] %x.8526, f32[] %y.8527)
}

%MaxComputation.8678 (x.8679: f32[], y.8680: f32[]) -> f32[] {
  %x.8679 = f32[] parameter(0)
  %y.8680 = f32[] parameter(1)
  ROOT %maximum.8681 = f32[] maximum(f32[] %x.8679, f32[] %y.8680)
}

%AddComputation.8687 (x.8688: f32[], y.8689: f32[]) -> f32[] {
  %x.8688 = f32[] parameter(0)
  %y.8689 = f32[] parameter(1)
  ROOT %add.8690 = f32[] add(f32[] %x.8688, f32[] %y.8689)
}

%AddComputation.8712 (x.8713: f32[], y.8714: f32[]) -> f32[] {
  %x.8713 = f32[] parameter(0)
  %y.8714 = f32[] parameter(1)
  ROOT %add.8715 = f32[] add(f32[] %x.8713, f32[] %y.8714)
}

%AddComputation.8767 (x.8768: f32[], y.8769: f32[]) -> f32[] {
  %x.8768 = f32[] parameter(0)
  %y.8769 = f32[] parameter(1)
  ROOT %add.8770 = f32[] add(f32[] %x.8768, f32[] %y.8769)
}

%MaxComputation.8920 (x.8921: f32[], y.8922: f32[]) -> f32[] {
  %x.8921 = f32[] parameter(0)
  %y.8922 = f32[] parameter(1)
  ROOT %maximum.8923 = f32[] maximum(f32[] %x.8921, f32[] %y.8922)
}

%AddComputation.8929 (x.8930: f32[], y.8931: f32[]) -> f32[] {
  %x.8930 = f32[] parameter(0)
  %y.8931 = f32[] parameter(1)
  ROOT %add.8932 = f32[] add(f32[] %x.8930, f32[] %y.8931)
}

%AddComputation.8954 (x.8955: f32[], y.8956: f32[]) -> f32[] {
  %x.8955 = f32[] parameter(0)
  %y.8956 = f32[] parameter(1)
  ROOT %add.8957 = f32[] add(f32[] %x.8955, f32[] %y.8956)
}

%AddComputation.9009 (x.9010: f32[], y.9011: f32[]) -> f32[] {
  %x.9010 = f32[] parameter(0)
  %y.9011 = f32[] parameter(1)
  ROOT %add.9012 = f32[] add(f32[] %x.9010, f32[] %y.9011)
}

%MaxComputation.9162 (x.9163: f32[], y.9164: f32[]) -> f32[] {
  %x.9163 = f32[] parameter(0)
  %y.9164 = f32[] parameter(1)
  ROOT %maximum.9165 = f32[] maximum(f32[] %x.9163, f32[] %y.9164)
}

%AddComputation.9171 (x.9172: f32[], y.9173: f32[]) -> f32[] {
  %x.9172 = f32[] parameter(0)
  %y.9173 = f32[] parameter(1)
  ROOT %add.9174 = f32[] add(f32[] %x.9172, f32[] %y.9173)
}

%AddComputation.9196 (x.9197: f32[], y.9198: f32[]) -> f32[] {
  %x.9197 = f32[] parameter(0)
  %y.9198 = f32[] parameter(1)
  ROOT %add.9199 = f32[] add(f32[] %x.9197, f32[] %y.9198)
}

%AddComputation.9251 (x.9252: f32[], y.9253: f32[]) -> f32[] {
  %x.9252 = f32[] parameter(0)
  %y.9253 = f32[] parameter(1)
  ROOT %add.9254 = f32[] add(f32[] %x.9252, f32[] %y.9253)
}

%MaxComputation.9404 (x.9405: f32[], y.9406: f32[]) -> f32[] {
  %x.9405 = f32[] parameter(0)
  %y.9406 = f32[] parameter(1)
  ROOT %maximum.9407 = f32[] maximum(f32[] %x.9405, f32[] %y.9406)
}

%AddComputation.9413 (x.9414: f32[], y.9415: f32[]) -> f32[] {
  %x.9414 = f32[] parameter(0)
  %y.9415 = f32[] parameter(1)
  ROOT %add.9416 = f32[] add(f32[] %x.9414, f32[] %y.9415)
}

%AddComputation.9438 (x.9439: f32[], y.9440: f32[]) -> f32[] {
  %x.9439 = f32[] parameter(0)
  %y.9440 = f32[] parameter(1)
  ROOT %add.9441 = f32[] add(f32[] %x.9439, f32[] %y.9440)
}

%AddComputation.9493 (x.9494: f32[], y.9495: f32[]) -> f32[] {
  %x.9494 = f32[] parameter(0)
  %y.9495 = f32[] parameter(1)
  ROOT %add.9496 = f32[] add(f32[] %x.9494, f32[] %y.9495)
}

%MaxComputation.9646 (x.9647: f32[], y.9648: f32[]) -> f32[] {
  %x.9647 = f32[] parameter(0)
  %y.9648 = f32[] parameter(1)
  ROOT %maximum.9649 = f32[] maximum(f32[] %x.9647, f32[] %y.9648)
}

%AddComputation.9655 (x.9656: f32[], y.9657: f32[]) -> f32[] {
  %x.9656 = f32[] parameter(0)
  %y.9657 = f32[] parameter(1)
  ROOT %add.9658 = f32[] add(f32[] %x.9656, f32[] %y.9657)
}

%AddComputation.9680 (x.9681: f32[], y.9682: f32[]) -> f32[] {
  %x.9681 = f32[] parameter(0)
  %y.9682 = f32[] parameter(1)
  ROOT %add.9683 = f32[] add(f32[] %x.9681, f32[] %y.9682)
}

%AddComputation.9735 (x.9736: f32[], y.9737: f32[]) -> f32[] {
  %x.9736 = f32[] parameter(0)
  %y.9737 = f32[] parameter(1)
  ROOT %add.9738 = f32[] add(f32[] %x.9736, f32[] %y.9737)
}

%MaxComputation.9888 (x.9889: f32[], y.9890: f32[]) -> f32[] {
  %x.9889 = f32[] parameter(0)
  %y.9890 = f32[] parameter(1)
  ROOT %maximum.9891 = f32[] maximum(f32[] %x.9889, f32[] %y.9890)
}

%AddComputation.9897 (x.9898: f32[], y.9899: f32[]) -> f32[] {
  %x.9898 = f32[] parameter(0)
  %y.9899 = f32[] parameter(1)
  ROOT %add.9900 = f32[] add(f32[] %x.9898, f32[] %y.9899)
}

%AddComputation.9922 (x.9923: f32[], y.9924: f32[]) -> f32[] {
  %x.9923 = f32[] parameter(0)
  %y.9924 = f32[] parameter(1)
  ROOT %add.9925 = f32[] add(f32[] %x.9923, f32[] %y.9924)
}

%AddComputation.9977 (x.9978: f32[], y.9979: f32[]) -> f32[] {
  %x.9978 = f32[] parameter(0)
  %y.9979 = f32[] parameter(1)
  ROOT %add.9980 = f32[] add(f32[] %x.9978, f32[] %y.9979)
}

%MaxComputation.10130 (x.10131: f32[], y.10132: f32[]) -> f32[] {
  %x.10131 = f32[] parameter(0)
  %y.10132 = f32[] parameter(1)
  ROOT %maximum.10133 = f32[] maximum(f32[] %x.10131, f32[] %y.10132)
}

%AddComputation.10139 (x.10140: f32[], y.10141: f32[]) -> f32[] {
  %x.10140 = f32[] parameter(0)
  %y.10141 = f32[] parameter(1)
  ROOT %add.10142 = f32[] add(f32[] %x.10140, f32[] %y.10141)
}

%AddComputation.10164 (x.10165: f32[], y.10166: f32[]) -> f32[] {
  %x.10165 = f32[] parameter(0)
  %y.10166 = f32[] parameter(1)
  ROOT %add.10167 = f32[] add(f32[] %x.10165, f32[] %y.10166)
}

%AddComputation.10219 (x.10220: f32[], y.10221: f32[]) -> f32[] {
  %x.10220 = f32[] parameter(0)
  %y.10221 = f32[] parameter(1)
  ROOT %add.10222 = f32[] add(f32[] %x.10220, f32[] %y.10221)
}

%MaxComputation.10372 (x.10373: f32[], y.10374: f32[]) -> f32[] {
  %x.10373 = f32[] parameter(0)
  %y.10374 = f32[] parameter(1)
  ROOT %maximum.10375 = f32[] maximum(f32[] %x.10373, f32[] %y.10374)
}

%AddComputation.10381 (x.10382: f32[], y.10383: f32[]) -> f32[] {
  %x.10382 = f32[] parameter(0)
  %y.10383 = f32[] parameter(1)
  ROOT %add.10384 = f32[] add(f32[] %x.10382, f32[] %y.10383)
}

%AddComputation.10406 (x.10407: f32[], y.10408: f32[]) -> f32[] {
  %x.10407 = f32[] parameter(0)
  %y.10408 = f32[] parameter(1)
  ROOT %add.10409 = f32[] add(f32[] %x.10407, f32[] %y.10408)
}

%AddComputation.10461 (x.10462: f32[], y.10463: f32[]) -> f32[] {
  %x.10462 = f32[] parameter(0)
  %y.10463 = f32[] parameter(1)
  ROOT %add.10464 = f32[] add(f32[] %x.10462, f32[] %y.10463)
}

%MaxComputation.10614 (x.10615: f32[], y.10616: f32[]) -> f32[] {
  %x.10615 = f32[] parameter(0)
  %y.10616 = f32[] parameter(1)
  ROOT %maximum.10617 = f32[] maximum(f32[] %x.10615, f32[] %y.10616)
}

%AddComputation.10623 (x.10624: f32[], y.10625: f32[]) -> f32[] {
  %x.10624 = f32[] parameter(0)
  %y.10625 = f32[] parameter(1)
  ROOT %add.10626 = f32[] add(f32[] %x.10624, f32[] %y.10625)
}

%AddComputation.10648 (x.10649: f32[], y.10650: f32[]) -> f32[] {
  %x.10649 = f32[] parameter(0)
  %y.10650 = f32[] parameter(1)
  ROOT %add.10651 = f32[] add(f32[] %x.10649, f32[] %y.10650)
}

%AddComputation.10703 (x.10704: f32[], y.10705: f32[]) -> f32[] {
  %x.10704 = f32[] parameter(0)
  %y.10705 = f32[] parameter(1)
  ROOT %add.10706 = f32[] add(f32[] %x.10704, f32[] %y.10705)
}

%MaxComputation.10856 (x.10857: f32[], y.10858: f32[]) -> f32[] {
  %x.10857 = f32[] parameter(0)
  %y.10858 = f32[] parameter(1)
  ROOT %maximum.10859 = f32[] maximum(f32[] %x.10857, f32[] %y.10858)
}

%AddComputation.10865 (x.10866: f32[], y.10867: f32[]) -> f32[] {
  %x.10866 = f32[] parameter(0)
  %y.10867 = f32[] parameter(1)
  ROOT %add.10868 = f32[] add(f32[] %x.10866, f32[] %y.10867)
}

%AddComputation.10890 (x.10891: f32[], y.10892: f32[]) -> f32[] {
  %x.10891 = f32[] parameter(0)
  %y.10892 = f32[] parameter(1)
  ROOT %add.10893 = f32[] add(f32[] %x.10891, f32[] %y.10892)
}

%AddComputation.10945 (x.10946: f32[], y.10947: f32[]) -> f32[] {
  %x.10946 = f32[] parameter(0)
  %y.10947 = f32[] parameter(1)
  ROOT %add.10948 = f32[] add(f32[] %x.10946, f32[] %y.10947)
}

%MaxComputation.11098 (x.11099: f32[], y.11100: f32[]) -> f32[] {
  %x.11099 = f32[] parameter(0)
  %y.11100 = f32[] parameter(1)
  ROOT %maximum.11101 = f32[] maximum(f32[] %x.11099, f32[] %y.11100)
}

%AddComputation.11107 (x.11108: f32[], y.11109: f32[]) -> f32[] {
  %x.11108 = f32[] parameter(0)
  %y.11109 = f32[] parameter(1)
  ROOT %add.11110 = f32[] add(f32[] %x.11108, f32[] %y.11109)
}

%AddComputation.11132 (x.11133: f32[], y.11134: f32[]) -> f32[] {
  %x.11133 = f32[] parameter(0)
  %y.11134 = f32[] parameter(1)
  ROOT %add.11135 = f32[] add(f32[] %x.11133, f32[] %y.11134)
}

%AddComputation.11187 (x.11188: f32[], y.11189: f32[]) -> f32[] {
  %x.11188 = f32[] parameter(0)
  %y.11189 = f32[] parameter(1)
  ROOT %add.11190 = f32[] add(f32[] %x.11188, f32[] %y.11189)
}

%MaxComputation.11340 (x.11341: f32[], y.11342: f32[]) -> f32[] {
  %x.11341 = f32[] parameter(0)
  %y.11342 = f32[] parameter(1)
  ROOT %maximum.11343 = f32[] maximum(f32[] %x.11341, f32[] %y.11342)
}

%AddComputation.11349 (x.11350: f32[], y.11351: f32[]) -> f32[] {
  %x.11350 = f32[] parameter(0)
  %y.11351 = f32[] parameter(1)
  ROOT %add.11352 = f32[] add(f32[] %x.11350, f32[] %y.11351)
}

%AddComputation.11374 (x.11375: f32[], y.11376: f32[]) -> f32[] {
  %x.11375 = f32[] parameter(0)
  %y.11376 = f32[] parameter(1)
  ROOT %add.11377 = f32[] add(f32[] %x.11375, f32[] %y.11376)
}

%AddComputation.11429 (x.11430: f32[], y.11431: f32[]) -> f32[] {
  %x.11430 = f32[] parameter(0)
  %y.11431 = f32[] parameter(1)
  ROOT %add.11432 = f32[] add(f32[] %x.11430, f32[] %y.11431)
}

%MaxComputation.11582 (x.11583: f32[], y.11584: f32[]) -> f32[] {
  %x.11583 = f32[] parameter(0)
  %y.11584 = f32[] parameter(1)
  ROOT %maximum.11585 = f32[] maximum(f32[] %x.11583, f32[] %y.11584)
}

%AddComputation.11591 (x.11592: f32[], y.11593: f32[]) -> f32[] {
  %x.11592 = f32[] parameter(0)
  %y.11593 = f32[] parameter(1)
  ROOT %add.11594 = f32[] add(f32[] %x.11592, f32[] %y.11593)
}

%AddComputation.11616 (x.11617: f32[], y.11618: f32[]) -> f32[] {
  %x.11617 = f32[] parameter(0)
  %y.11618 = f32[] parameter(1)
  ROOT %add.11619 = f32[] add(f32[] %x.11617, f32[] %y.11618)
}

%AddComputation.11671 (x.11672: f32[], y.11673: f32[]) -> f32[] {
  %x.11672 = f32[] parameter(0)
  %y.11673 = f32[] parameter(1)
  ROOT %add.11674 = f32[] add(f32[] %x.11672, f32[] %y.11673)
}

%MaxComputation.11824 (x.11825: f32[], y.11826: f32[]) -> f32[] {
  %x.11825 = f32[] parameter(0)
  %y.11826 = f32[] parameter(1)
  ROOT %maximum.11827 = f32[] maximum(f32[] %x.11825, f32[] %y.11826)
}

%AddComputation.11833 (x.11834: f32[], y.11835: f32[]) -> f32[] {
  %x.11834 = f32[] parameter(0)
  %y.11835 = f32[] parameter(1)
  ROOT %add.11836 = f32[] add(f32[] %x.11834, f32[] %y.11835)
}

%AddComputation.11858 (x.11859: f32[], y.11860: f32[]) -> f32[] {
  %x.11859 = f32[] parameter(0)
  %y.11860 = f32[] parameter(1)
  ROOT %add.11861 = f32[] add(f32[] %x.11859, f32[] %y.11860)
}

%AddComputation.11913 (x.11914: f32[], y.11915: f32[]) -> f32[] {
  %x.11914 = f32[] parameter(0)
  %y.11915 = f32[] parameter(1)
  ROOT %add.11916 = f32[] add(f32[] %x.11914, f32[] %y.11915)
}

%MaxComputation.12066 (x.12067: f32[], y.12068: f32[]) -> f32[] {
  %x.12067 = f32[] parameter(0)
  %y.12068 = f32[] parameter(1)
  ROOT %maximum.12069 = f32[] maximum(f32[] %x.12067, f32[] %y.12068)
}

%AddComputation.12075 (x.12076: f32[], y.12077: f32[]) -> f32[] {
  %x.12076 = f32[] parameter(0)
  %y.12077 = f32[] parameter(1)
  ROOT %add.12078 = f32[] add(f32[] %x.12076, f32[] %y.12077)
}

%AddComputation.12100 (x.12101: f32[], y.12102: f32[]) -> f32[] {
  %x.12101 = f32[] parameter(0)
  %y.12102 = f32[] parameter(1)
  ROOT %add.12103 = f32[] add(f32[] %x.12101, f32[] %y.12102)
}

%AddComputation.12155 (x.12156: f32[], y.12157: f32[]) -> f32[] {
  %x.12156 = f32[] parameter(0)
  %y.12157 = f32[] parameter(1)
  ROOT %add.12158 = f32[] add(f32[] %x.12156, f32[] %y.12157)
}

%MaxComputation.12308 (x.12309: f32[], y.12310: f32[]) -> f32[] {
  %x.12309 = f32[] parameter(0)
  %y.12310 = f32[] parameter(1)
  ROOT %maximum.12311 = f32[] maximum(f32[] %x.12309, f32[] %y.12310)
}

%AddComputation.12317 (x.12318: f32[], y.12319: f32[]) -> f32[] {
  %x.12318 = f32[] parameter(0)
  %y.12319 = f32[] parameter(1)
  ROOT %add.12320 = f32[] add(f32[] %x.12318, f32[] %y.12319)
}

%AddComputation.12342 (x.12343: f32[], y.12344: f32[]) -> f32[] {
  %x.12343 = f32[] parameter(0)
  %y.12344 = f32[] parameter(1)
  ROOT %add.12345 = f32[] add(f32[] %x.12343, f32[] %y.12344)
}

%AddComputation.12397 (x.12398: f32[], y.12399: f32[]) -> f32[] {
  %x.12398 = f32[] parameter(0)
  %y.12399 = f32[] parameter(1)
  ROOT %add.12400 = f32[] add(f32[] %x.12398, f32[] %y.12399)
}

%MaxComputation.12550 (x.12551: f32[], y.12552: f32[]) -> f32[] {
  %x.12551 = f32[] parameter(0)
  %y.12552 = f32[] parameter(1)
  ROOT %maximum.12553 = f32[] maximum(f32[] %x.12551, f32[] %y.12552)
}

%AddComputation.12559 (x.12560: f32[], y.12561: f32[]) -> f32[] {
  %x.12560 = f32[] parameter(0)
  %y.12561 = f32[] parameter(1)
  ROOT %add.12562 = f32[] add(f32[] %x.12560, f32[] %y.12561)
}

%AddComputation.12584 (x.12585: f32[], y.12586: f32[]) -> f32[] {
  %x.12585 = f32[] parameter(0)
  %y.12586 = f32[] parameter(1)
  ROOT %add.12587 = f32[] add(f32[] %x.12585, f32[] %y.12586)
}

%AddComputation.12639 (x.12640: f32[], y.12641: f32[]) -> f32[] {
  %x.12640 = f32[] parameter(0)
  %y.12641 = f32[] parameter(1)
  ROOT %add.12642 = f32[] add(f32[] %x.12640, f32[] %y.12641)
}

%MaxComputation.12792 (x.12793: f32[], y.12794: f32[]) -> f32[] {
  %x.12793 = f32[] parameter(0)
  %y.12794 = f32[] parameter(1)
  ROOT %maximum.12795 = f32[] maximum(f32[] %x.12793, f32[] %y.12794)
}

%AddComputation.12801 (x.12802: f32[], y.12803: f32[]) -> f32[] {
  %x.12802 = f32[] parameter(0)
  %y.12803 = f32[] parameter(1)
  ROOT %add.12804 = f32[] add(f32[] %x.12802, f32[] %y.12803)
}

%AddComputation.12826 (x.12827: f32[], y.12828: f32[]) -> f32[] {
  %x.12827 = f32[] parameter(0)
  %y.12828 = f32[] parameter(1)
  ROOT %add.12829 = f32[] add(f32[] %x.12827, f32[] %y.12828)
}

%AddComputation.12881 (x.12882: f32[], y.12883: f32[]) -> f32[] {
  %x.12882 = f32[] parameter(0)
  %y.12883 = f32[] parameter(1)
  ROOT %add.12884 = f32[] add(f32[] %x.12882, f32[] %y.12883)
}

%MaxComputation.13034 (x.13035: f32[], y.13036: f32[]) -> f32[] {
  %x.13035 = f32[] parameter(0)
  %y.13036 = f32[] parameter(1)
  ROOT %maximum.13037 = f32[] maximum(f32[] %x.13035, f32[] %y.13036)
}

%AddComputation.13043 (x.13044: f32[], y.13045: f32[]) -> f32[] {
  %x.13044 = f32[] parameter(0)
  %y.13045 = f32[] parameter(1)
  ROOT %add.13046 = f32[] add(f32[] %x.13044, f32[] %y.13045)
}

%AddComputation.13068 (x.13069: f32[], y.13070: f32[]) -> f32[] {
  %x.13069 = f32[] parameter(0)
  %y.13070 = f32[] parameter(1)
  ROOT %add.13071 = f32[] add(f32[] %x.13069, f32[] %y.13070)
}

%AddComputation.13123 (x.13124: f32[], y.13125: f32[]) -> f32[] {
  %x.13124 = f32[] parameter(0)
  %y.13125 = f32[] parameter(1)
  ROOT %add.13126 = f32[] add(f32[] %x.13124, f32[] %y.13125)
}

%compare-greater-than.13162 (p.0.lhs.13163: f32[], p.0.rhs.13164: f32[], p.1.lhs.13165: s32[], p.1.rhs.13166: s32[]) -> pred[] {
  %p.1.lhs.13165 = s32[] parameter(2)
  %p.1.rhs.13166 = s32[] parameter(3)
  %p.0.lhs.13163 = f32[] parameter(0)
  %p.0.rhs.13164 = f32[] parameter(1)
  ROOT %compare.13167 = pred[] compare(f32[] %p.0.lhs.13163, f32[] %p.0.rhs.13164), direction=GT, type=TOTALORDER
}

%MaxComputation.13189 (x.13190: f32[], y.13191: f32[]) -> f32[] {
  %x.13190 = f32[] parameter(0)
  %y.13191 = f32[] parameter(1)
  ROOT %maximum.13192 = f32[] maximum(f32[] %x.13190, f32[] %y.13191)
}

%AddComputation.13198 (x.13199: f32[], y.13200: f32[]) -> f32[] {
  %x.13199 = f32[] parameter(0)
  %y.13200 = f32[] parameter(1)
  ROOT %add.13201 = f32[] add(f32[] %x.13199, f32[] %y.13200)
}

%AddComputation.13207 (x.13208: f32[], y.13209: f32[]) -> f32[] {
  %x.13208 = f32[] parameter(0)
  %y.13209 = f32[] parameter(1)
  ROOT %add.13210 = f32[] add(f32[] %x.13208, f32[] %y.13209)
}

%AddComputation.13245 (x.13246: s64[], y.13247: s64[]) -> s64[] {
  %x.13246 = s64[] parameter(0)
  %y.13247 = s64[] parameter(1)
  ROOT %add.13248 = s64[] add(s64[] %x.13246, s64[] %y.13247)
}

ENTRY %IrToHlo.13267 (p0.11: s64[], p1.14: s64[], p2.19: f64[], p3.20: bf16[92553,4096], p4.23: f32[], p5.26: bf16[4096,14336], p6.28: bf16[14336,4096], p7.33: bf16[4096,4096], p8.35: bf16[6144,4096], p9.40: bf16[4096,14336], p10.42: bf16[14336,4096], p11.47: bf16[4096,4096], p12.49: bf16[6144,4096], p13.54: bf16[4096,14336], p14.56: bf16[14336,4096], p15.61: bf16[4096,4096], p16.63: bf16[6144,4096], p17.68: bf16[4096,14336], p18.70: bf16[14336,4096], p19.75: bf16[4096,4096], p20.77: bf16[6144,4096], p21.82: bf16[4096,14336], p22.84: bf16[14336,4096], p23.89: bf16[4096,4096], p24.91: bf16[6144,4096], p25.96: bf16[4096,14336], p26.98: bf16[14336,4096], p27.103: bf16[4096,4096], p28.105: bf16[6144,4096], p29.110: bf16[4096,14336], p30.112: bf16[14336,4096], p31.117: bf16[4096,4096], p32.119: bf16[6144,4096], p33.124: bf16[4096,14336], p34.126: bf16[14336,4096], p35.131: bf16[4096,4096], p36.133: bf16[6144,4096], p37.138: bf16[4096,14336], p38.140: bf16[14336,4096], p39.145: bf16[4096,4096], p40.147: bf16[6144,4096], p41.152: bf16[4096,14336], p42.154: bf16[14336,4096], p43.159: bf16[4096,4096], p44.161: bf16[6144,4096], p45.166: bf16[4096,14336], p46.168: bf16[14336,4096], p47.173: bf16[4096,4096], p48.175: bf16[6144,4096], p49.180: bf16[4096,14336], p50.182: bf16[14336,4096], p51.187: bf16[4096,4096], p52.189: bf16[6144,4096], p53.194: bf16[4096,14336], p54.196: bf16[14336,4096], p55.201: bf16[4096,4096], p56.203: bf16[6144,4096], p57.208: bf16[4096,14336], p58.210: bf16[14336,4096], p59.215: bf16[4096,4096], p60.217: bf16[6144,4096], p61.222: bf16[4096,14336], p62.224: bf16[14336,4096], p63.229: bf16[4096,4096], p64.231: bf16[6144,4096], p65.236: bf16[4096,14336], p66.238: bf16[14336,4096], p67.243: bf16[4096,4096], p68.245: bf16[6144,4096], p69.250: bf16[4096,14336], p70.252: bf16[14336,4096], p71.257: bf16[4096,4096], p72.259: bf16[6144,4096], p73.264: bf16[4096,14336], p74.266: bf16[14336,4096], p75.271: bf16[4096,4096], p76.273: bf16[6144,4096], p77.278: bf16[4096,14336], p78.280: bf16[14336,4096], p79.285: bf16[4096,4096], p80.287: bf16[6144,4096], p81.292: bf16[4096,14336], p82.294: bf16[14336,4096], p83.299: bf16[4096,4096], p84.301: bf16[6144,4096], p85.306: bf16[4096,14336], p86.308: bf16[14336,4096], p87.313: bf16[4096,4096], p88.315: bf16[6144,4096], p89.320: bf16[4096,14336], p90.322: bf16[14336,4096], p91.327: bf16[4096,4096], p92.329: bf16[6144,4096], p93.334: bf16[4096,14336], p94.336: bf16[14336,4096], p95.341: bf16[4096,4096], p96.343: bf16[6144,4096], p97.348: bf16[4096,14336], p98.350: bf16[14336,4096], p99.355: bf16[4096,4096], p100.357: bf16[6144,4096], p101.362: bf16[4096,14336], p102.364: bf16[14336,4096], p103.369: bf16[4096,4096], p104.371: bf16[6144,4096], p105.376: bf16[4096,14336], p106.378: bf16[14336,4096], p107.383: bf16[4096,4096], p108.385: bf16[6144,4096], p109.390: bf16[4096,14336], p110.392: bf16[14336,4096], p111.397: bf16[4096,4096], p112.399: bf16[6144,4096], p113.404: bf16[4096,14336], p114.406: bf16[14336,4096], p115.411: bf16[4096,4096], p116.413: bf16[6144,4096], p117.418: bf16[4096,14336], p118.420: bf16[14336,4096], p119.425: bf16[4096,4096], p120.427: bf16[6144,4096], p121.432: bf16[4096,14336], p122.434: bf16[14336,4096], p123.439: bf16[4096,4096], p124.441: bf16[6144,4096], p125.446: bf16[4096,14336], p126.448: bf16[14336,4096], p127.453: bf16[4096,4096], p128.455: bf16[6144,4096], p129.460: bf16[4096,14336], p130.462: bf16[14336,4096], p131.467: bf16[4096,4096], p132.469: bf16[6144,4096], p133.474: bf16[4096], p134.475: bf16[4096,4096], p135.478: bf16[4096], p136.479: bf16[4096,4096], p137.482: bf16[4096], p138.504: bf16[1024], p139.507: bf16[1024], p140.508: bf16[1024,4096], p141.511: bf16[4096], p142.512: bf16[4096,1024], p143.515: bf16[1024], p144.537: bf16[1024], p145.540: bf16[1024], p146.541: bf16[1024,1024], p147.544: bf16[3072], p148.545: bf16[3072,1024], p149.548: bf16[1024], p150.570: bf16[1024], p151.573: bf16[1024], p152.574: bf16[1024,4096], p153.577: bf16[4096], p154.578: bf16[4096,1024], p155.581: bf16[1024], p156.603: bf16[1024], p157.606: bf16[1024], p158.607: bf16[1024,1024], p159.610: bf16[3072], p160.611: bf16[3072,1024], p161.614: bf16[1024], p162.636: bf16[1024], p163.639: bf16[1024], p164.640: bf16[1024,4096], p165.643: bf16[4096], p166.644: bf16[4096,1024], p167.647: bf16[1024], p168.669: bf16[1024], p169.672: bf16[1024], p170.673: bf16[1024,1024], p171.676: bf16[3072], p172.677: bf16[3072,1024], p173.680: bf16[1024], p174.702: bf16[1024], p175.705: bf16[1024], p176.706: bf16[1024,4096], p177.709: bf16[4096], p178.710: bf16[4096,1024], p179.713: bf16[1024], p180.735: bf16[1024], p181.738: bf16[1024], p182.739: bf16[1024,1024], p183.742: bf16[3072], p184.743: bf16[3072,1024], p185.746: bf16[1024], p186.768: bf16[1024], p187.771: bf16[1024], p188.772: bf16[1024,4096], p189.775: bf16[4096], p190.776: bf16[4096,1024], p191.779: bf16[1024], p192.801: bf16[1024], p193.804: bf16[1024], p194.805: bf16[1024,1024], p195.808: bf16[3072], p196.809: bf16[3072,1024], p197.812: bf16[1024], p198.834: bf16[1024], p199.837: bf16[1024], p200.838: bf16[1024,4096], p201.841: bf16[4096], p202.842: bf16[4096,1024], p203.845: bf16[1024], p204.867: bf16[1024], p205.870: bf16[1024], p206.871: bf16[1024,1024], p207.874: bf16[3072], p208.875: bf16[3072,1024], p209.878: bf16[1024], p210.900: bf16[1024], p211.903: bf16[1024], p212.904: bf16[1024,4096], p213.907: bf16[4096], p214.908: bf16[4096,1024], p215.911: bf16[1024], p216.933: bf16[1024], p217.936: bf16[1024], p218.937: bf16[1024,1024], p219.940: bf16[3072], p220.941: bf16[3072,1024], p221.944: bf16[1024], p222.966: bf16[1024], p223.969: bf16[1024], p224.970: bf16[1024,4096], p225.973: bf16[4096], p226.974: bf16[4096,1024], p227.977: bf16[1024], p228.999: bf16[1024], p229.1002: bf16[1024], p230.1003: bf16[1024,1024], p231.1006: bf16[3072], p232.1007: bf16[3072,1024], p233.1010: bf16[1024], p234.1032: bf16[1024], p235.1035: bf16[1024], p236.1036: bf16[1024,4096], p237.1039: bf16[4096], p238.1040: bf16[4096,1024], p239.1043: bf16[1024], p240.1065: bf16[1024], p241.1068: bf16[1024], p242.1069: bf16[1024,1024], p243.1072: bf16[3072], p244.1073: bf16[3072,1024], p245.1076: bf16[1024], p246.1098: bf16[1024], p247.1101: bf16[1024], p248.1102: bf16[1024,4096], p249.1105: bf16[4096], p250.1106: bf16[4096,1024], p251.1109: bf16[1024], p252.1131: bf16[1024], p253.1134: bf16[1024], p254.1135: bf16[1024,1024], p255.1138: bf16[3072], p256.1139: bf16[3072,1024], p257.1142: bf16[1024], p258.1164: bf16[1024], p259.1167: bf16[1024], p260.1168: bf16[1024,4096], p261.1171: bf16[4096], p262.1172: bf16[4096,1024], p263.1175: bf16[1024], p264.1197: bf16[1024], p265.1200: bf16[1024], p266.1201: bf16[1024,1024], p267.1204: bf16[3072], p268.1205: bf16[3072,1024], p269.1208: bf16[1024], p270.1230: bf16[1024], p271.1233: bf16[1024], p272.1234: bf16[1024,4096], p273.1237: bf16[4096], p274.1238: bf16[4096,1024], p275.1241: bf16[1024], p276.1263: bf16[1024], p277.1266: bf16[1024], p278.1267: bf16[1024,1024], p279.1270: bf16[3072], p280.1271: bf16[3072,1024], p281.1274: bf16[1024], p282.1296: bf16[1024], p283.1299: bf16[1024], p284.1300: bf16[1024,4096], p285.1303: bf16[4096], p286.1304: bf16[4096,1024], p287.1307: bf16[1024], p288.1329: bf16[1024], p289.1332: bf16[1024], p290.1333: bf16[1024,1024], p291.1336: bf16[3072], p292.1337: bf16[3072,1024], p293.1340: bf16[1024], p294.1362: bf16[1024], p295.1365: bf16[1024], p296.1366: bf16[1024,4096], p297.1369: bf16[4096], p298.1370: bf16[4096,1024], p299.1373: bf16[1024], p300.1395: bf16[1024], p301.1398: bf16[1024], p302.1399: bf16[1024,1024], p303.1402: bf16[3072], p304.1403: bf16[3072,1024], p305.1406: bf16[1024], p306.1428: bf16[1024], p307.1431: bf16[1024], p308.1432: bf16[1024,4096], p309.1435: bf16[4096], p310.1436: bf16[4096,1024], p311.1439: bf16[1024], p312.1461: bf16[1024], p313.1464: bf16[1024], p314.1465: bf16[1024,1024], p315.1468: bf16[3072], p316.1469: bf16[3072,1024], p317.1472: bf16[1024], p318.1494: bf16[1024], p319.1497: bf16[1024], p320.1498: bf16[1024,4096], p321.1501: bf16[4096], p322.1502: bf16[4096,1024], p323.1505: bf16[1024], p324.1527: bf16[1024], p325.1530: bf16[1024], p326.1531: bf16[1024,1024], p327.1534: bf16[3072], p328.1535: bf16[3072,1024], p329.1538: bf16[1024], p330.1560: bf16[1024], p331.1563: bf16[1024], p332.1564: bf16[1024,4096], p333.1567: bf16[4096], p334.1568: bf16[4096,1024], p335.1571: bf16[1024], p336.1593: bf16[1024], p337.1596: bf16[1024], p338.1597: bf16[1024,1024], p339.1600: bf16[3072], p340.1601: bf16[3072,1024], p341.1604: bf16[1024], p342.1626: bf16[1024], p343.1629: bf16[1024], p344.1630: bf16[1024,4096], p345.1633: bf16[4096], p346.1634: bf16[4096,1024], p347.1637: bf16[1024], p348.1659: bf16[1024], p349.1662: bf16[1024], p350.1663: bf16[1024,1024], p351.1666: bf16[3072], p352.1667: bf16[3072,1024], p353.1670: bf16[1024], p354.1692: bf16[1024], p355.1695: bf16[1024], p356.1696: bf16[1024,4096], p357.1699: bf16[4096], p358.1700: bf16[4096,1024], p359.1703: bf16[1024], p360.1725: bf16[1024], p361.1728: bf16[1024], p362.1729: bf16[1024,1024], p363.1732: bf16[3072], p364.1733: bf16[3072,1024], p365.1736: bf16[1024], p366.1758: bf16[1024], p367.1761: bf16[1024], p368.1762: bf16[1024,4096], p369.1765: bf16[4096], p370.1766: bf16[4096,1024], p371.1769: bf16[1024], p372.1791: bf16[1024], p373.1794: bf16[1024], p374.1795: bf16[1024,1024], p375.1798: bf16[3072], p376.1799: bf16[3072,1024], p377.1802: bf16[1024], p378.1824: bf16[1024], p379.1827: bf16[1024], p380.1828: bf16[1024,4096], p381.1831: bf16[4096], p382.1832: bf16[4096,1024], p383.1835: bf16[1024], p384.1857: bf16[1024], p385.1860: bf16[1024], p386.1861: bf16[1024,1024], p387.1864: bf16[3072], p388.1865: bf16[3072,1024], p389.1868: bf16[1024], p390.1890: bf16[1024], p391.1893: bf16[1024], p392.1894: bf16[1024,4096], p393.1897: bf16[4096], p394.1898: bf16[4096,1024], p395.1901: bf16[1024], p396.1923: bf16[1024], p397.1926: bf16[1024], p398.1927: bf16[1024,1024], p399.1930: bf16[3072], p400.1931: bf16[3072,1024], p401.1934: bf16[1024], p402.1956: bf16[1024], p403.1959: bf16[1024], p404.1960: bf16[1024,4096], p405.1963: bf16[4096], p406.1964: bf16[4096,1024], p407.1967: bf16[1024], p408.1989: bf16[1024], p409.1992: bf16[1024], p410.1993: bf16[1024,1024], p411.1996: bf16[3072], p412.1997: bf16[3072,1024], p413.2000: bf16[1024], p414.2022: bf16[1024], p415.2025: bf16[1024], p416.2026: bf16[1024,4096], p417.2029: bf16[4096], p418.2030: bf16[4096,1024], p419.2033: bf16[1024], p420.2055: bf16[1024], p421.2058: bf16[1024], p422.2059: bf16[1024,1024], p423.2062: bf16[3072], p424.2063: bf16[3072,1024], p425.2066: bf16[1024], p426.2088: f32[1,1024,32,32], p427.2092: bf16[1,1025,1024], p428.2097: bf16[1024], p429.2098: bf16[1024,3,14,14], p430.2099: bf16[1,3,448,448], p431.2106: bf16[1,1,1024], p432.2120: bf16[1024], p433.2146: f32[], p434.2202: bf16[1024], p435.2250: bf16[1024], p436.2331: bf16[1024], p437.2379: bf16[1024], p438.2460: bf16[1024], p439.2508: bf16[1024], p440.2589: bf16[1024], p441.2637: bf16[1024], p442.2718: bf16[1024], p443.2766: bf16[1024], p444.2847: bf16[1024], p445.2895: bf16[1024], p446.2976: bf16[1024], p447.3024: bf16[1024], p448.3105: bf16[1024], p449.3153: bf16[1024], p450.3234: bf16[1024], p451.3282: bf16[1024], p452.3363: bf16[1024], p453.3411: bf16[1024], p454.3492: bf16[1024], p455.3540: bf16[1024], p456.3621: bf16[1024], p457.3669: bf16[1024], p458.3750: bf16[1024], p459.3798: bf16[1024], p460.3879: bf16[1024], p461.3927: bf16[1024], p462.4008: bf16[1024], p463.4056: bf16[1024], p464.4137: bf16[1024], p465.4185: bf16[1024], p466.4266: bf16[1024], p467.4314: bf16[1024], p468.4395: bf16[1024], p469.4443: bf16[1024], p470.4524: bf16[1024], p471.4572: bf16[1024], p472.4653: bf16[1024], p473.4701: bf16[1024], p474.4782: bf16[1024], p475.4830: bf16[1024], p476.4911: bf16[1024], p477.4959: bf16[1024], p478.5040: bf16[1024], p479.5088: bf16[1024], p480.5169: bf16[1024], p481.5226: bf16[4096], p482.5260: s64[256,1], p483.5263: s64[], p484.5275: s64[1,310], p485.5277: bf16[92553,4096], p486.5321: bf16[4096], p487.5359: f32[], p488.5378: f64[], p489.5381: s64[1,310], p490.5406: bf16[], p491.5441: bf16[32768,128], p492.5470: bf16[32768,128], p493.5591: bf16[4096], p494.5600: bf16[14336,4096], p495.5646: bf16[4096], p496.5683: bf16[32768,128], p497.5712: bf16[32768,128], p498.5833: bf16[4096], p499.5842: bf16[14336,4096], p500.5888: bf16[4096], p501.5925: bf16[32768,128], p502.5954: bf16[32768,128], p503.6075: bf16[4096], p504.6084: bf16[14336,4096], p505.6130: bf16[4096], p506.6167: bf16[32768,128], p507.6196: bf16[32768,128], p508.6317: bf16[4096], p509.6326: bf16[14336,4096], p510.6372: bf16[4096], p511.6409: bf16[32768,128], p512.6438: bf16[32768,128], p513.6559: bf16[4096], p514.6568: bf16[14336,4096], p515.6614: bf16[4096], p516.6651: bf16[32768,128], p517.6680: bf16[32768,128], p518.6801: bf16[4096], p519.6810: bf16[14336,4096], p520.6856: bf16[4096], p521.6893: bf16[32768,128], p522.6922: bf16[32768,128], p523.7043: bf16[4096], p524.7052: bf16[14336,4096], p525.7098: bf16[4096], p526.7135: bf16[32768,128], p527.7164: bf16[32768,128], p528.7285: bf16[4096], p529.7294: bf16[14336,4096], p530.7340: bf16[4096], p531.7377: bf16[32768,128], p532.7406: bf16[32768,128], p533.7527: bf16[4096], p534.7536: bf16[14336,4096], p535.7582: bf16[4096], p536.7619: bf16[32768,128], p537.7648: bf16[32768,128], p538.7769: bf16[4096], p539.7778: bf16[14336,4096], p540.7824: bf16[4096], p541.7861: bf16[32768,128], p542.7890: bf16[32768,128], p543.8011: bf16[4096], p544.8020: bf16[14336,4096], p545.8066: bf16[4096], p546.8103: bf16[32768,128], p547.8132: bf16[32768,128], p548.8253: bf16[4096], p549.8262: bf16[14336,4096], p550.8308: bf16[4096], p551.8345: bf16[32768,128], p552.8374: bf16[32768,128], p553.8495: bf16[4096], p554.8504: bf16[14336,4096], p555.8550: bf16[4096], p556.8587: bf16[32768,128], p557.8616: bf16[32768,128], p558.8737: bf16[4096], p559.8746: bf16[14336,4096], p560.8792: bf16[4096], p561.8829: bf16[32768,128], p562.8858: bf16[32768,128], p563.8979: bf16[4096], p564.8988: bf16[14336,4096], p565.9034: bf16[4096], p566.9071: bf16[32768,128], p567.9100: bf16[32768,128], p568.9221: bf16[4096], p569.9230: bf16[14336,4096], p570.9276: bf16[4096], p571.9313: bf16[32768,128], p572.9342: bf16[32768,128], p573.9463: bf16[4096], p574.9472: bf16[14336,4096], p575.9518: bf16[4096], p576.9555: bf16[32768,128], p577.9584: bf16[32768,128], p578.9705: bf16[4096], p579.9714: bf16[14336,4096], p580.9760: bf16[4096], p581.9797: bf16[32768,128], p582.9826: bf16[32768,128], p583.9947: bf16[4096], p584.9956: bf16[14336,4096], p585.10002: bf16[4096], p586.10039: bf16[32768,128], p587.10068: bf16[32768,128], p588.10189: bf16[4096], p589.10198: bf16[14336,4096], p590.10244: bf16[4096], p591.10281: bf16[32768,128], p592.10310: bf16[32768,128], p593.10431: bf16[4096], p594.10440: bf16[14336,4096], p595.10486: bf16[4096], p596.10523: bf16[32768,128], p597.10552: bf16[32768,128], p598.10673: bf16[4096], p599.10682: bf16[14336,4096], p600.10728: bf16[4096], p601.10765: bf16[32768,128], p602.10794: bf16[32768,128], p603.10915: bf16[4096], p604.10924: bf16[14336,4096], p605.10970: bf16[4096], p606.11007: bf16[32768,128], p607.11036: bf16[32768,128], p608.11157: bf16[4096], p609.11166: bf16[14336,4096], p610.11212: bf16[4096], p611.11249: bf16[32768,128], p612.11278: bf16[32768,128], p613.11399: bf16[4096], p614.11408: bf16[14336,4096], p615.11454: bf16[4096], p616.11491: bf16[32768,128], p617.11520: bf16[32768,128], p618.11641: bf16[4096], p619.11650: bf16[14336,4096], p620.11696: bf16[4096], p621.11733: bf16[32768,128], p622.11762: bf16[32768,128], p623.11883: bf16[4096], p624.11892: bf16[14336,4096], p625.11938: bf16[4096], p626.11975: bf16[32768,128], p627.12004: bf16[32768,128], p628.12125: bf16[4096], p629.12134: bf16[14336,4096], p630.12180: bf16[4096], p631.12217: bf16[32768,128], p632.12246: bf16[32768,128], p633.12367: bf16[4096], p634.12376: bf16[14336,4096], p635.12422: bf16[4096], p636.12459: bf16[32768,128], p637.12488: bf16[32768,128], p638.12609: bf16[4096], p639.12618: bf16[14336,4096], p640.12664: bf16[4096], p641.12701: bf16[32768,128], p642.12730: bf16[32768,128], p643.12851: bf16[4096], p644.12860: bf16[14336,4096], p645.12906: bf16[4096], p646.12943: bf16[32768,128], p647.12972: bf16[32768,128], p648.13093: bf16[4096], p649.13102: bf16[14336,4096], p650.13148: bf16[4096]) -> (s64[1]) {
  %constant.483 = bf16[] constant(0), metadata={op_type="prim__Constant" op_name="prim__Constant" source_file="/home/kojoe/.local/lib/python3.10/site-packages/torch/nn/functional.py" source_line=2900}
  %reshape.484 = bf16[1]{0} reshape(bf16[] %constant.483), metadata={op_type="aten__expand" op_name="aten__expand" source_file="/home/kojoe/.local/lib/python3.10/site-packages/torch/nn/functional.py" source_line=2900}
  %broadcast.485 = bf16[1]{0} broadcast(bf16[1]{0} %reshape.484), dimensions={0}, metadata={op_type="aten__expand" op_name="aten__expand" source_file="/home/kojoe/.local/lib/python3.10/site-packages/torch/nn/functional.py" source_line=2900}
  %reshape.486 = bf16[] reshape(bf16[1]{0} %broadcast.485), metadata={op_type="aten__expand" op_name="aten__expand" source_file="/home/kojoe/.local/lib/python3.10/site-packages/torch/nn/functional.py" source_line=2900}
  %broadcast.487 = bf16[256]{0} broadcast(bf16[] %reshape.486), dimensions={}, metadata={op_type="aten__expand" op_name="aten__expand" source_file="/home/kojoe/.local/lib/python3.10/site-packages/torch/nn/functional.py" source_line=2900}
  %constant.488 = bf16[] constant(0), metadata={op_type="prim__Constant" op_name="prim__Constant" source_file="/home/kojoe/.local/lib/python3.10/site-packages/torch/nn/functional.py" source_line=2900}
  %reshape.489 = bf16[1]{0} reshape(bf16[] %constant.488), metadata={op_type="aten__expand" op_name="aten__expand" source_file="/home/kojoe/.local/lib/python3.10/site-packages/torch/nn/functional.py" source_line=2900}
  %broadcast.490 = bf16[1]{0} broadcast(bf16[1]{0} %reshape.489), dimensions={0}, metadata={op_type="aten__expand" op_name="aten__expand" source_file="/home/kojoe/.local/lib/python3.10/site-packages/torch/nn/functional.py" source_line=2900}
  %reshape.491 = bf16[] reshape(bf16[1]{0} %broadcast.490), metadata={op_type="aten__expand" op_name="aten__expand" source_file="/home/kojoe/.local/lib/python3.10/site-packages/torch/nn/functional.py" source_line=2900}
  %broadcast.492 = bf16[256]{0} broadcast(bf16[] %reshape.491), dimensions={}, metadata={op_type="aten__expand" op_name="aten__expand" source_file="/home/kojoe/.local/lib/python3.10/site-packages/torch/nn/functional.py" source_line=2900}
  %constant.516 = bf16[] constant(0), metadata={op_type="prim__Constant" op_name="prim__Constant" source_file="/home/kojoe/.local/lib/python3.10/site-packages/torch/nn/functional.py" source_line=2900}
  %reshape.517 = bf16[1]{0} reshape(bf16[] %constant.516), metadata={op_type="aten__expand" op_name="aten__expand" source_file="/home/kojoe/.local/lib/python3.10/site-packages/torch/nn/functional.py" source_line=2900}
  %broadcast.518 = bf16[1]{0} broadcast(bf16[1]{0} %reshape.517), dimensions={0}, metadata={op_type="aten__expand" op_name="aten__expand" source_file="/home/kojoe/.local/lib/python3.10/site-packages/torch/nn/functional.py" source_line=2900}
  %reshape.519 = bf16[] reshape(bf16[1]{0} %broadcast.518), metadata={op_type="aten__expand" op_name="aten__expand" source_file="/home/kojoe/.local/lib/python3.10/site-packages/torch/nn/functional.py" source_line=2900}
  %broadcast.520 = bf16[1025]{0} broadcast(bf16[] %reshape.519), dimensions={}, metadata={op_type="aten__expand" op_name="aten__expand" source_file="/home/kojoe/.local/lib/python3.10/site-packages/torch/nn/functional.py" source_line=2900}
  %constant.521 = bf16[] constant(0), metadata={op_type="prim__Constant" op_name="prim__Constant" source_file="/home/kojoe/.local/lib/python3.10/site-packages/torch/nn/functional.py" source_line=2900}
  %reshape.522 = bf16[1]{0} reshape(bf16[] %constant.521), metadata={op_type="aten__expand" op_name="aten__expand" source_file="/home/kojoe/.local/lib/python3.10/site-packages/torch/nn/functional.py" source_line=2900}
  %broadcast.523 = bf16[1]{0} broadcast(bf16[1]{0} %reshape.522), dimensions={0}, metadata={op_type="aten__expand" op_name="aten__expand" source_file="/home/kojoe/.local/lib/python3.10/site-packages/torch/nn/functional.py" source_line=2900}
  %reshape.524 = bf16[] reshape(bf16[1]{0} %broadcast.523), metadata={op_type="aten__expand" op_name="aten__expand" source_file="/home/kojoe/.local/lib/python3.10/site-packages/torch/nn/functional.py" source_line=2900}
  %broadcast.525 = bf16[1025]{0} broadcast(bf16[] %reshape.524), dimensions={}, metadata={op_type="aten__expand" op_name="aten__expand" source_file="/home/kojoe/.local/lib/python3.10/site-packages/torch/nn/functional.py" source_line=2900}
  %constant.549 = bf16[] constant(0), metadata={op_type="prim__Constant" op_name="prim__Constant" source_file="/home/kojoe/.local/lib/python3.10/site-packages/torch/nn/functional.py" source_line=2900}
  %reshape.550 = bf16[1]{0} reshape(bf16[] %constant.549), metadata={op_type="aten__expand" op_name="aten__expand" source_file="/home/kojoe/.local/lib/python3.10/site-packages/torch/nn/functional.py" source_line=2900}
  %broadcast.551 = bf16[1]{0} broadcast(bf16[1]{0} %reshape.550), dimensions={0}, metadata={op_type="aten__expand" op_name="aten__expand" source_file="/home/kojoe/.local/lib/python3.10/site-packages/torch/nn/functional.py" source_line=2900}
  %reshape.552 = bf16[] reshape(bf16[1]{0} %broadcast.551), metadata={op_type="aten__expand" op_name="aten__expand" source_file="/home/kojoe/.local/lib/python3.10/site-packages/torch/nn/functional.py" source_line=2900}
  %broadcast.553 = bf16[1025]{0} broadcast(bf16[] %reshape.552), dimensions={}, metadata={op_type="aten__expand" op_name="aten__expand" source_file="/home/kojoe/.local/lib/python3.10/site-packages/torch/nn/functional.py" source_line=2900}
  %constant.554 = bf16[] constant(0), metadata={op_type="prim__Constant" op_name="prim__Constant" source_file="/home/kojoe/.local/lib/python3.10/site-packages/torch/nn/functional.py" source_line=2900}
  %reshape.555 = bf16[1]{0} reshape(bf16[] %constant.554), metadata={op_type="aten__expand" op_name="aten__expand" source_file="/home/kojoe/.local/lib/python3.10/site-packages/torch/nn/functional.py" source_line=2900}
  %broadcast.556 = bf16[1]{0} broadcast(bf16[1]{0} %reshape.555), dimensions={0}, metadata={op_type="aten__expand" op_name="aten__expand" source_file="/home/kojoe/.local/lib/python3.10/site-packages/torch/nn/functional.py" source_line=2900}
  %reshape.557 = bf16[] reshape(bf16[1]{0} %broadcast.556), metadata={op_type="aten__expand" op_name="aten__expand" source_file="/home/kojoe/.local/lib/python3.10/site-packages/torch/nn/functional.py" source_line=2900}
  %broadcast.558 = bf16[1025]{0} broadcast(bf16[] %reshape.557), dimensions={}, metadata={op_type="aten__expand" op_name="aten__expand" source_file="/home/kojoe/.local/lib/python3.10/site-packages/torch/nn/functional.py" source_line=2900}
  %constant.582 = bf16[] constant(0), metadata={op_type="prim__Constant" op_name="prim__Constant" source_file="/home/kojoe/.local/lib/python3.10/site-packages/torch/nn/functional.py" source_line=2900}
  %reshape.583 = bf16[1]{0} reshape(bf16[] %constant.582), metadata={op_type="aten__expand" op_name="aten__expand" source_file="/home/kojoe/.local/lib/python3.10/site-packages/torch/nn/functional.py" source_line=2900}
  %broadcast.584 = bf16[1]{0} broadcast(bf16[1]{0} %reshape.583), dimensions={0}, metadata={op_type="aten__expand" op_name="aten__expand" source_file="/home/kojoe/.local/lib/python3.10/site-packages/torch/nn/functional.py" source_line=2900}
  %reshape.585 = bf16[] reshape(bf16[1]{0} %broadcast.584), metadata={op_type="aten__expand" op_name="aten__expand" source_file="/home/kojoe/.local/lib/python3.10/site-packages/torch/nn/functional.py" source_line=2900}
  %broadcast.586 = bf16[1025]{0} broadcast(bf16[] %reshape.585), dimensions={}, metadata={op_type="aten__expand" op_name="aten__expand" source_file="/home/kojoe/.local/lib/python3.10/site-packages/torch/nn/functional.py" source_line=2900}
  %constant.587 = bf16[] constant(0), metadata={op_type="prim__Constant" op_name="prim__Constant" source_file="/home/kojoe/.local/lib/python3.10/site-packages/torch/nn/functional.py" source_line=2900}
  %reshape.588 = bf16[1]{0} reshape(bf16[] %constant.587), metadata={op_type="aten__expand" op_name="aten__expand" source_file="/home/kojoe/.local/lib/python3.10/site-packages/torch/nn/functional.py" source_line=2900}
  %broadcast.589 = bf16[1]{0} broadcast(bf16[1]{0} %reshape.588), dimensions={0}, metadata={op_type="aten__expand" op_name="aten__expand" source_file="/home/kojoe/.local/lib/python3.10/site-packages/torch/nn/functional.py" source_line=2900}
  %reshape.590 = bf16[] reshape(bf16[1]{0} %broadcast.589), metadata={op_type="aten__expand" op_name="aten__expand" source_file="/home/kojoe/.local/lib/python3.10/site-packages/torch/nn/functional.py" source_line=2900}
  %broadcast.591 = bf16[1025]{0} broadcast(bf16[] %reshape.590), dimensions={}, metadata={op_type="aten__expand" op_name="aten__expand" source_file="/home/kojoe/.local/lib/python3.10/site-packages/torch/nn/functional.py" source_line=2900}
  %constant.615 = bf16[] constant(0), metadata={op_type="prim__Constant" op_name="prim__Constant" source_file="/home/kojoe/.local/lib/python3.10/site-packages/torch/nn/functional.py" source_line=2900}
  %reshape.616 = bf16[1]{0} reshape(bf16[] %constant.615), metadata={op_type="aten__expand" op_name="aten__expand" source_file="/home/kojoe/.local/lib/python3.10/site-packages/torch/nn/functional.py" source_line=2900}
  %broadcast.617 = bf16[1]{0} broadcast(bf16[1]{0} %reshape.616), dimensions={0}, metadata={op_type="aten__expand" op_name="aten__expand" source_file="/home/kojoe/.local/lib/python3.10/site-packages/torch/nn/functional.py" source_line=2900}
  %reshape.618 = bf16[] reshape(bf16[1]{0} %broadcast.617), metadata={op_type="aten__expand" op_name="aten__expand" source_file="/home/kojoe/.local/lib/python3.10/site-packages/torch/nn/functional.py" source_line=2900}
  %broadcast.619 = bf16[1025]{0} broadcast(bf16[] %reshape.618), dimensions={}, metadata={op_type="aten__expand" op_name="aten__expand" source_file="/home/kojoe/.local/lib/python3.10/site-packages/torch/nn/functional.py" source_line=2900}
  %constant.620 = bf16[] constant(0), metadata={op_type="prim__Constant" op_name="prim__Constant" source_file="/home/kojoe/.local/lib/python3.10/site-packages/torch/nn/functional.py" source_line=2900}
  %reshape.621 = bf16[1]{0} reshape(bf16[] %constant.620), metadata={op_type="aten__expand" op_name="aten__expand" source_file="/home/kojoe/.local/lib/python3.10/site-packages/torch/nn/functional.py" source_line=2900}
  %broadcast.622 = bf16[1]{0} broadcast(bf16[1]{0} %reshape.621), dimensions={0}, metadata={op_type="aten__expand" op_name="aten__expand" source_file="/home/kojoe/.local/lib/python3.10/site-packages/torch/nn/functional.py" source_line=2900}
  %reshape.623 = bf16[] reshape(bf16[1]{0} %broadcast.622), metadata={op_type="aten__expand" op_name="aten__expand" source_file="/home/kojoe/.local/lib/python3.10/site-packages/torch/nn/functional.py" source_line=2900}
  %broadcast.624 = bf16[1025]{0} broadcast(bf16[] %reshape.623), dimensions={}, metadata={op_type="aten__expand" op_name="aten__expand" source_file="/home/kojoe/.local/lib/python3.10/site-packages/torch/nn/functional.py" source_line=2900}
  %constant.648 = bf16[] constant(0), metadata={op_type="prim__Constant" op_name="prim__Constant" source_file="/home/kojoe/.local/lib/python3.10/site-packages/torch/nn/functional.py" source_line=2900}
  %reshape.649 = bf16[1]{0} reshape(bf16[] %constant.648), metadata={op_type="aten__expand" op_name="aten__expand" source_file="/home/kojoe/.local/lib/python3.10/site-packages/torch/nn/functional.py" source_line=2900}
  %broadcast.650 = bf16[1]{0} broadcast(bf16[1]{0} %reshape.649), dimensions={0}, metadata={op_type="aten__expand" op_name="aten__expand" source_file="/home/kojoe/.local/lib/python3.10/site-packages/torch/nn/functional.py" source_line=2900}
  %reshape.651 = bf16[] reshape(bf16[1]{0} %broadcast.650), metadata={op_type="aten__expand" op_name="aten__expand" source_file="/home/kojoe/.local/lib/python3.10/site-packages/torch/nn/functional.py" source_line=2900}
  %broadcast.652 = bf16[1025]{0} broadcast(bf16[] %reshape.651), dimensions={}, metadata={op_type="aten__expand" op_name="aten__expand" source_file="/home/kojoe/.local/lib/python3.10/site-packages/torch/nn/functional.py" source_line=2900}
  %constant.653 = bf16[] constant(0), metadata={op_type="prim__Constant" op_name="prim__Constant" source_file="/home/kojoe/.local/lib/python3.10/site-packages/torch/nn/functional.py" source_line=2900}
  %reshape.654 = bf16[1]{0} reshape(bf16[] %constant.653), metadata={op_type="aten__expand" op_name="aten__expand" source_file="/home/kojoe/.local/lib/python3.10/site-packages/torch/nn/functional.py" source_line=2900}
  %broadcast.655 = bf16[1]{0} broadcast(bf16[1]{0} %reshape.654), dimensions={0}, metadata={op_type="aten__expand" op_name="aten__expand" source_file="/home/kojoe/.local/lib/python3.10/site-packages/torch/nn/functional.py" source_line=2900}
  %reshape.656 = bf16[] reshape(bf16[1]{0} %broadcast.655), metadata={op_type="aten__expand" op_name="aten__expand" source_file="/home/kojoe/.local/lib/python3.10/site-packages/torch/nn/functional.py" source_line=2900}
  %broadcast.657 = bf16[1025]{0} broadcast(bf16[] %reshape.656), dimensions={}, metadata={op_type="aten__expand" op_name="aten__expand" source_file="/home/kojoe/.local/lib/python3.10/site-packages/torch/nn/functional.py" source_line=2900}
  %constant.681 = bf16[] constant(0), metadata={op_type="prim__Constant" op_name="prim__Constant" source_file="/home/kojoe/.local/lib/python3.10/site-packages/torch/nn/functional.py" source_line=2900}
  %reshape.682 = bf16[1]{0} reshape(bf16[] %constant.681), metadata={op_type="aten__expand" op_name="aten__expand" source_file="/home/kojoe/.local/lib/python3.10/site-packages/torch/nn/functional.py" source_line=2900}
  %broadcast.683 = bf16[1]{0} broadcast(bf16[1]{0} %reshape.682), dimensions={0}, metadata={op_type="aten__expand" op_name="aten__expand" source_file="/home/kojoe/.local/lib/python3.10/site-packages/torch/nn/functional.py" source_line=2900}
  %reshape.684 = bf16[] reshape(bf16[1]{0} %broadcast.683), metadata={op_type="aten__expand" op_name="aten__expand" source_file="/home/kojoe/.local/lib/python3.10/site-packages/torch/nn/functional.py" source_line=2900}
  %broadcast.685 = bf16[1025]{0} broadcast(bf16[] %reshape.684), dimensions={}, metadata={op_type="aten__expand" op_name="aten__expand" source_file="/home/kojoe/.local/lib/python3.10/site-packages/torch/nn/functional.py" source_line=2900}
  %constant.686 = bf16[] constant(0), metadata={op_type="prim__Constant" op_name="prim__Constant" source_file="/home/kojoe/.local/lib/python3.10/site-packages/torch/nn/functional.py" source_line=2900}
  %reshape.687 = bf16[1]{0} reshape(bf16[] %constant.686), metadata={op_type="aten__expand" op_name="aten__expand" source_file="/home/kojoe/.local/lib/python3.10/site-packages/torch/nn/functional.py" source_line=2900}
  %broadcast.688 = bf16[1]{0} broadcast(bf16[1]{0} %reshape.687), dimensions={0}, metadata={op_type="aten__expand" op_name="aten__expand" source_file="/home/kojoe/.local/lib/python3.10/site-packages/torch/nn/functional.py" source_line=2900}
  %reshape.689 = bf16[] reshape(bf16[1]{0} %broadcast.688), metadata={op_type="aten__expand" op_name="aten__expand" source_file="/home/kojoe/.local/lib/python3.10/site-packages/torch/nn/functional.py" source_line=2900}
  %broadcast.690 = bf16[1025]{0} broadcast(bf16[] %reshape.689), dimensions={}, metadata={op_type="aten__expand" op_name="aten__expand" source_file="/home/kojoe/.local/lib/python3.10/site-packages/torch/nn/functional.py" source_line=2900}
  %constant.714 = bf16[] constant(0), metadata={op_type="prim__Constant" op_name="prim__Constant" source_file="/home/kojoe/.local/lib/python3.10/site-packages/torch/nn/functional.py" source_line=2900}
  %reshape.715 = bf16[1]{0} reshape(bf16[] %constant.714), metadata={op_type="aten__expand" op_name="aten__expand" source_file="/home/kojoe/.local/lib/python3.10/site-packages/torch/nn/functional.py" source_line=2900}
  %broadcast.716 = bf16[1]{0} broadcast(bf16[1]{0} %reshape.715), dimensions={0}, metadata={op_type="aten__expand" op_name="aten__expand" source_file="/home/kojoe/.local/lib/python3.10/site-packages/torch/nn/functional.py" source_line=2900}
  %reshape.717 = bf16[] reshape(bf16[1]{0} %broadcast.716), metadata={op_type="aten__expand" op_name="aten__expand" source_file="/home/kojoe/.local/lib/python3.10/site-packages/torch/nn/functional.py" source_line=2900}
  %broadcast.718 = bf16[1025]{0} broadcast(bf16[] %reshape.717), dimensions={}, metadata={op_type="aten__expand" op_name="aten__expand" source_file="/home/kojoe/.local/lib/python3.10/site-packages/torch/nn/functional.py" source_line=2900}
  %constant.719 = bf16[] constant(0), metadata={op_type="prim__Constant" op_name="prim__Constant" source_file="/home/kojoe/.local/lib/python3.10/site-packages/torch/nn/functional.py" source_line=2900}
  %reshape.720 = bf16[1]{0} reshape(bf16[] %constant.719), metadata={op_type="aten__expand" op_name="aten__expand" source_file="/home/kojoe/.local/lib/python3.10/site-packages/torch/nn/functional.py" source_line=2900}
  %broadcast.721 = bf16[1]{0} broadcast(bf16[1]{0} %reshape.720), dimensions={0}, metadata={op_type="aten__expand" op_name="aten__expand" source_file="/home/kojoe/.local/lib/python3.10/site-packages/torch/nn/functional.py" source_line=2900}
  %reshape.722 = bf16[] reshape(bf16[1]{0} %broadcast.721), metadata={op_type="aten__expand" op_name="aten__expand" source_file="/home/kojoe/.local/lib/python3.10/site-packages/torch/nn/functional.py" source_line=2900}
  %broadcast.723 = bf16[1025]{0} broadcast(bf16[] %reshape.722), dimensions={}, metadata={op_type="aten__expand" op_name="aten__expand" source_file="/home/kojoe/.local/lib/python3.10/site-packages/torch/nn/functional.py" source_line=2900}
  %constant.747 = bf16[] constant(0), metadata={op_type="prim__Constant" op_name="prim__Constant" source_file="/home/kojoe/.local/lib/python3.10/site-packages/torch/nn/functional.py" source_line=2900}
  %reshape.748 = bf16[1]{0} reshape(bf16[] %constant.747), metadata={op_type="aten__expand" op_name="aten__expand" source_file="/home/kojoe/.local/lib/python3.10/site-packages/torch/nn/functional.py" source_line=2900}
  %broadcast.749 = bf16[1]{0} broadcast(bf16[1]{0} %reshape.748), dimensions={0}, metadata={op_type="aten__expand" op_name="aten__expand" source_file="/home/kojoe/.local/lib/python3.10/site-packages/torch/nn/functional.py" source_line=2900}
  %reshape.750 = bf16[] reshape(bf16[1]{0} %broadcast.749), metadata={op_type="aten__expand" op_name="aten__expand" source_file="/home/kojoe/.local/lib/python3.10/site-packages/torch/nn/functional.py" source_line=2900}
  %broadcast.751 = bf16[1025]{0} broadcast(bf16[] %reshape.750), dimensions={}, metadata={op_type="aten__expand" op_name="aten__expand" source_file="/home/kojoe/.local/lib/python3.10/site-packages/torch/nn/functional.py" source_line=2900}
  %constant.752 = bf16[] constant(0), metadata={op_type="prim__Constant" op_name="prim__Constant" source_file="/home/kojoe/.local/lib/python3.10/site-packages/torch/nn/functional.py" source_line=2900}
  %reshape.753 = bf16[1]{0} reshape(bf16[] %constant.752), metadata={op_type="aten__expand" op_name="aten__expand" source_file="/home/kojoe/.local/lib/python3.10/site-packages/torch/nn/functional.py" source_line=2900}
  %broadcast.754 = bf16[1]{0} broadcast(bf16[1]{0} %reshape.753), dimensions={0}, metadata={op_type="aten__expand" op_name="aten__expand" source_file="/home/kojoe/.local/lib/python3.10/site-packages/torch/nn/functional.py" source_line=2900}
  %reshape.755 = bf16[] reshape(bf16[1]{0} %broadcast.754), metadata={op_type="aten__expand" op_name="aten__expand" source_file="/home/kojoe/.local/lib/python3.10/site-packages/torch/nn/functional.py" source_line=2900}
  %broadcast.756 = bf16[1025]{0} broadcast(bf16[] %reshape.755), dimensions={}, metadata={op_type="aten__expand" op_name="aten__expand" source_file="/home/kojoe/.local/lib/python3.10/site-packages/torch/nn/functional.py" source_line=2900}
  %constant.780 = bf16[] constant(0), metadata={op_type="prim__Constant" op_name="prim__Constant" source_file="/home/kojoe/.local/lib/python3.10/site-packages/torch/nn/functional.py" source_line=2900}
  %reshape.781 = bf16[1]{0} reshape(bf16[] %constant.780), metadata={op_type="aten__expand" op_name="aten__expand" source_file="/home/kojoe/.local/lib/python3.10/site-packages/torch/nn/functional.py" source_line=2900}
  %broadcast.782 = bf16[1]{0} broadcast(bf16[1]{0} %reshape.781), dimensions={0}, metadata={op_type="aten__expand" op_name="aten__expand" source_file="/home/kojoe/.local/lib/python3.10/site-packages/torch/nn/functional.py" source_line=2900}
  %reshape.783 = bf16[] reshape(bf16[1]{0} %broadcast.782), metadata={op_type="aten__expand" op_name="aten__expand" source_file="/home/kojoe/.local/lib/python3.10/site-packages/torch/nn/functional.py" source_line=2900}
  %broadcast.784 = bf16[1025]{0} broadcast(bf16[] %reshape.783), dimensions={}, metadata={op_type="aten__expand" op_name="aten__expand" source_file="/home/kojoe/.local/lib/python3.10/site-packages/torch/nn/functional.py" source_line=2900}
  %constant.785 = bf16[] constant(0), metadata={op_type="prim__Constant" op_name="prim__Constant" source_file="/home/kojoe/.local/lib/python3.10/site-packages/torch/nn/functional.py" source_line=2900}
  %reshape.786 = bf16[1]{0} reshape(bf16[] %constant.785), metadata={op_type="aten__expand" op_name="aten__expand" source_file="/home/kojoe/.local/lib/python3.10/site-packages/torch/nn/functional.py" source_line=2900}
  %broadcast.787 = bf16[1]{0} broadcast(bf16[1]{0} %reshape.786), dimensions={0}, metadata={op_type="aten__expand" op_name="aten__expand" source_file="/home/kojoe/.local/lib/python3.10/site-packages/torch/nn/functional.py" source_line=2900}
  %reshape.788 = bf16[] reshape(bf16[1]{0} %broadcast.787), metadata={op_type="aten__expand" op_name="aten__expand" source_file="/home/kojoe/.local/lib/python3.10/site-packages/torch/nn/functional.py" source_line=2900}
  %broadcast.789 = bf16[1025]{0} broadcast(bf16[] %reshape.788), dimensions={}, metadata={op_type="aten__expand" op_name="aten__expand" source_file="/home/kojoe/.local/lib/python3.10/site-packages/torch/nn/functional.py" source_line=2900}
  %constant.813 = bf16[] constant(0), metadata={op_type="prim__Constant" op_name="prim__Constant" source_file="/home/kojoe/.local/lib/python3.10/site-packages/torch/nn/functional.py" source_line=2900}
  %reshape.814 = bf16[1]{0} reshape(bf16[] %constant.813), metadata={op_type="aten__expand" op_name="aten__expand" source_file="/home/kojoe/.local/lib/python3.10/site-packages/torch/nn/functional.py" source_line=2900}
  %broadcast.815 = bf16[1]{0} broadcast(bf16[1]{0} %reshape.814), dimensions={0}, metadata={op_type="aten__expand" op_name="aten__expand" source_file="/home/kojoe/.local/lib/python3.10/site-packages/torch/nn/functional.py" source_line=2900}
  %reshape.816 = bf16[] reshape(bf16[1]{0} %broadcast.815), metadata={op_type="aten__expand" op_name="aten__expand" source_file="/home/kojoe/.local/lib/python3.10/site-packages/torch/nn/functional.py" source_line=2900}
  %broadcast.817 = bf16[1025]{0} broadcast(bf16[] %reshape.816), dimensions={}, metadata={op_type="aten__expand" op_name="aten__expand" source_file="/home/kojoe/.local/lib/python3.10/site-packages/torch/nn/functional.py" source_line=2900}
  %constant.818 = bf16[] constant(0), metadata={op_type="prim__Constant" op_name="prim__Constant" source_file="/home/kojoe/.local/lib/python3.10/site-packages/torch/nn/functional.py" source_line=2900}
  %reshape.819 = bf16[1]{0} reshape(bf16[] %constant.818), metadata={op_type="aten__expand" op_name="aten__expand" source_file="/home/kojoe/.local/lib/python3.10/site-packages/torch/nn/functional.py" source_line=2900}
  %broadcast.820 = bf16[1]{0} broadcast(bf16[1]{0} %reshape.819), dimensions={0}, metadata={op_type="aten__expand" op_name="aten__expand" source_file="/home/kojoe/.local/lib/python3.10/site-packages/torch/nn/functional.py" source_line=2900}
  %reshape.821 = bf16[] reshape(bf16[1]{0} %broadcast.820), metadata={op_type="aten__expand" op_name="aten__expand" source_file="/home/kojoe/.local/lib/python3.10/site-packages/torch/nn/functional.py" source_line=2900}
  %broadcast.822 = bf16[1025]{0} broadcast(bf16[] %reshape.821), dimensions={}, metadata={op_type="aten__expand" op_name="aten__expand" source_file="/home/kojoe/.local/lib/python3.10/site-packages/torch/nn/functional.py" source_line=2900}
  %constant.846 = bf16[] constant(0), metadata={op_type="prim__Constant" op_name="prim__Constant" source_file="/home/kojoe/.local/lib/python3.10/site-packages/torch/nn/functional.py" source_line=2900}
  %reshape.847 = bf16[1]{0} reshape(bf16[] %constant.846), metadata={op_type="aten__expand" op_name="aten__expand" source_file="/home/kojoe/.local/lib/python3.10/site-packages/torch/nn/functional.py" source_line=2900}
  %broadcast.848 = bf16[1]{0} broadcast(bf16[1]{0} %reshape.847), dimensions={0}, metadata={op_type="aten__expand" op_name="aten__expand" source_file="/home/kojoe/.local/lib/python3.10/site-packages/torch/nn/functional.py" source_line=2900}
  %reshape.849 = bf16[] reshape(bf16[1]{0} %broadcast.848), metadata={op_type="aten__expand" op_name="aten__expand" source_file="/home/kojoe/.local/lib/python3.10/site-packages/torch/nn/functional.py" source_line=2900}
  %broadcast.850 = bf16[1025]{0} broadcast(bf16[] %reshape.849), dimensions={}, metadata={op_type="aten__expand" op_name="aten__expand" source_file="/home/kojoe/.local/lib/python3.10/site-packages/torch/nn/functional.py" source_line=2900}
  %constant.851 = bf16[] constant(0), metadata={op_type="prim__Constant" op_name="prim__Constant" source_file="/home/kojoe/.local/lib/python3.10/site-packages/torch/nn/functional.py" source_line=2900}
  %reshape.852 = bf16[1]{0} reshape(bf16[] %constant.851), metadata={op_type="aten__expand" op_name="aten__expand" source_file="/home/kojoe/.local/lib/python3.10/site-packages/torch/nn/functional.py" source_line=2900}
  %broadcast.853 = bf16[1]{0} broadcast(bf16[1]{0} %reshape.852), dimensions={0}, metadata={op_type="aten__expand" op_name="aten__expand" source_file="/home/kojoe/.local/lib/python3.10/site-packages/torch/nn/functional.py" source_line=2900}
  %reshape.854 = bf16[] reshape(bf16[1]{0} %broadcast.853), metadata={op_type="aten__expand" op_name="aten__expand" source_file="/home/kojoe/.local/lib/python3.10/site-packages/torch/nn/functional.py" source_line=2900}
  %broadcast.855 = bf16[1025]{0} broadcast(bf16[] %reshape.854), dimensions={}, metadata={op_type="aten__expand" op_name="aten__expand" source_file="/home/kojoe/.local/lib/python3.10/site-packages/torch/nn/functional.py" source_line=2900}
  %constant.879 = bf16[] constant(0), metadata={op_type="prim__Constant" op_name="prim__Constant" source_file="/home/kojoe/.local/lib/python3.10/site-packages/torch/nn/functional.py" source_line=2900}
  %reshape.880 = bf16[1]{0} reshape(bf16[] %constant.879), metadata={op_type="aten__expand" op_name="aten__expand" source_file="/home/kojoe/.local/lib/python3.10/site-packages/torch/nn/functional.py" source_line=2900}
  %broadcast.881 = bf16[1]{0} broadcast(bf16[1]{0} %reshape.880), dimensions={0}, metadata={op_type="aten__expand" op_name="aten__expand" source_file="/home/kojoe/.local/lib/python3.10/site-packages/torch/nn/functional.py" source_line=2900}
  %reshape.882 = bf16[] reshape(bf16[1]{0} %broadcast.881), metadata={op_type="aten__expand" op_name="aten__expand" source_file="/home/kojoe/.local/lib/python3.10/site-packages/torch/nn/functional.py" source_line=2900}
  %broadcast.883 = bf16[1025]{0} broadcast(bf16[] %reshape.882), dimensions={}, metadata={op_type="aten__expand" op_name="aten__expand" source_file="/home/kojoe/.local/lib/python3.10/site-packages/torch/nn/functional.py" source_line=2900}
  %constant.884 = bf16[] constant(0), metadata={op_type="prim__Constant" op_name="prim__Constant" source_file="/home/kojoe/.local/lib/python3.10/site-packages/torch/nn/functional.py" source_line=2900}
  %reshape.885 = bf16[1]{0} reshape(bf16[] %constant.884), metadata={op_type="aten__expand" op_name="aten__expand" source_file="/home/kojoe/.local/lib/python3.10/site-packages/torch/nn/functional.py" source_line=2900}
  %broadcast.886 = bf16[1]{0} broadcast(bf16[1]{0} %reshape.885), dimensions={0}, metadata={op_type="aten__expand" op_name="aten__expand" source_file="/home/kojoe/.local/lib/python3.10/site-packages/torch/nn/functional.py" source_line=2900}
  %reshape.887 = bf16[] reshape(bf16[1]{0} %broadcast.886), metadata={op_type="aten__expand" op_name="aten__expand" source_file="/home/kojoe/.local/lib/python3.10/site-packages/torch/nn/functional.py" source_line=2900}
  %broadcast.888 = bf16[1025]{0} broadcast(bf16[] %reshape.887), dimensions={}, metadata={op_type="aten__expand" op_name="aten__expand" source_file="/home/kojoe/.local/lib/python3.10/site-packages/torch/nn/functional.py" source_line=2900}
  %constant.912 = bf16[] constant(0), metadata={op_type="prim__Constant" op_name="prim__Constant" source_file="/home/kojoe/.local/lib/python3.10/site-packages/torch/nn/functional.py" source_line=2900}
  %reshape.913 = bf16[1]{0} reshape(bf16[] %constant.912), metadata={op_type="aten__expand" op_name="aten__expand" source_file="/home/kojoe/.local/lib/python3.10/site-packages/torch/nn/functional.py" source_line=2900}
  %broadcast.914 = bf16[1]{0} broadcast(bf16[1]{0} %reshape.913), dimensions={0}, metadata={op_type="aten__expand" op_name="aten__expand" source_file="/home/kojoe/.local/lib/python3.10/site-packages/torch/nn/functional.py" source_line=2900}
  %reshape.915 = bf16[] reshape(bf16[1]{0} %broadcast.914), metadata={op_type="aten__expand" op_name="aten__expand" source_file="/home/kojoe/.local/lib/python3.10/site-packages/torch/nn/functional.py" source_line=2900}
  %broadcast.916 = bf16[1025]{0} broadcast(bf16[] %reshape.915), dimensions={}, metadata={op_type="aten__expand" op_name="aten__expand" source_file="/home/kojoe/.local/lib/python3.10/site-packages/torch/nn/functional.py" source_line=2900}
  %constant.917 = bf16[] constant(0), metadata={op_type="prim__Constant" op_name="prim__Constant" source_file="/home/kojoe/.local/lib/python3.10/site-packages/torch/nn/functional.py" source_line=2900}
  %reshape.918 = bf16[1]{0} reshape(bf16[] %constant.917), metadata={op_type="aten__expand" op_name="aten__expand" source_file="/home/kojoe/.local/lib/python3.10/site-packages/torch/nn/functional.py" source_line=2900}
  %broadcast.919 = bf16[1]{0} broadcast(bf16[1]{0} %reshape.918), dimensions={0}, metadata={op_type="aten__expand" op_name="aten__expand" source_file="/home/kojoe/.local/lib/python3.10/site-packages/torch/nn/functional.py" source_line=2900}
  %reshape.920 = bf16[] reshape(bf16[1]{0} %broadcast.919), metadata={op_type="aten__expand" op_name="aten__expand" source_file="/home/kojoe/.local/lib/python3.10/site-packages/torch/nn/functional.py" source_line=2900}
  %broadcast.921 = bf16[1025]{0} broadcast(bf16[] %reshape.920), dimensions={}, metadata={op_type="aten__expand" op_name="aten__expand" source_file="/home/kojoe/.local/lib/python3.10/site-packages/torch/nn/functional.py" source_line=2900}
  %constant.945 = bf16[] constant(0), metadata={op_type="prim__Constant" op_name="prim__Constant" source_file="/home/kojoe/.local/lib/python3.10/site-packages/torch/nn/functional.py" source_line=2900}
  %reshape.946 = bf16[1]{0} reshape(bf16[] %constant.945), metadata={op_type="aten__expand" op_name="aten__expand" source_file="/home/kojoe/.local/lib/python3.10/site-packages/torch/nn/functional.py" source_line=2900}
  %broadcast.947 = bf16[1]{0} broadcast(bf16[1]{0} %reshape.946), dimensions={0}, metadata={op_type="aten__expand" op_name="aten__expand" source_file="/home/kojoe/.local/lib/python3.10/site-packages/torch/nn/functional.py" source_line=2900}
  %reshape.948 = bf16[] reshape(bf16[1]{0} %broadcast.947), metadata={op_type="aten__expand" op_name="aten__expand" source_file="/home/kojoe/.local/lib/python3.10/site-packages/torch/nn/functional.py" source_line=2900}
  %broadcast.949 = bf16[1025]{0} broadcast(bf16[] %reshape.948), dimensions={}, metadata={op_type="aten__expand" op_name="aten__expand" source_file="/home/kojoe/.local/lib/python3.10/site-packages/torch/nn/functional.py" source_line=2900}
  %constant.950 = bf16[] constant(0), metadata={op_type="prim__Constant" op_name="prim__Constant" source_file="/home/kojoe/.local/lib/python3.10/site-packages/torch/nn/functional.py" source_line=2900}
  %reshape.951 = bf16[1]{0} reshape(bf16[] %constant.950), metadata={op_type="aten__expand" op_name="aten__expand" source_file="/home/kojoe/.local/lib/python3.10/site-packages/torch/nn/functional.py" source_line=2900}
  %broadcast.952 = bf16[1]{0} broadcast(bf16[1]{0} %reshape.951), dimensions={0}, metadata={op_type="aten__expand" op_name="aten__expand" source_file="/home/kojoe/.local/lib/python3.10/site-packages/torch/nn/functional.py" source_line=2900}
  %reshape.953 = bf16[] reshape(bf16[1]{0} %broadcast.952), metadata={op_type="aten__expand" op_name="aten__expand" source_file="/home/kojoe/.local/lib/python3.10/site-packages/torch/nn/functional.py" source_line=2900}
  %broadcast.954 = bf16[1025]{0} broadcast(bf16[] %reshape.953), dimensions={}, metadata={op_type="aten__expand" op_name="aten__expand" source_file="/home/kojoe/.local/lib/python3.10/site-packages/torch/nn/functional.py" source_line=2900}
  %constant.978 = bf16[] constant(0), metadata={op_type="prim__Constant" op_name="prim__Constant" source_file="/home/kojoe/.local/lib/python3.10/site-packages/torch/nn/functional.py" source_line=2900}
  %reshape.979 = bf16[1]{0} reshape(bf16[] %constant.978), metadata={op_type="aten__expand" op_name="aten__expand" source_file="/home/kojoe/.local/lib/python3.10/site-packages/torch/nn/functional.py" source_line=2900}
  %broadcast.980 = bf16[1]{0} broadcast(bf16[1]{0} %reshape.979), dimensions={0}, metadata={op_type="aten__expand" op_name="aten__expand" source_file="/home/kojoe/.local/lib/python3.10/site-packages/torch/nn/functional.py" source_line=2900}
  %reshape.981 = bf16[] reshape(bf16[1]{0} %broadcast.980), metadata={op_type="aten__expand" op_name="aten__expand" source_file="/home/kojoe/.local/lib/python3.10/site-packages/torch/nn/functional.py" source_line=2900}
  %broadcast.982 = bf16[1025]{0} broadcast(bf16[] %reshape.981), dimensions={}, metadata={op_type="aten__expand" op_name="aten__expand" source_file="/home/kojoe/.local/lib/python3.10/site-packages/torch/nn/functional.py" source_line=2900}
  %constant.983 = bf16[] constant(0), metadata={op_type="prim__Constant" op_name="prim__Constant" source_file="/home/kojoe/.local/lib/python3.10/site-packages/torch/nn/functional.py" source_line=2900}
  %reshape.984 = bf16[1]{0} reshape(bf16[] %constant.983), metadata={op_type="aten__expand" op_name="aten__expand" source_file="/home/kojoe/.local/lib/python3.10/site-packages/torch/nn/functional.py" source_line=2900}
  %broadcast.985 = bf16[1]{0} broadcast(bf16[1]{0} %reshape.984), dimensions={0}, metadata={op_type="aten__expand" op_name="aten__expand" source_file="/home/kojoe/.local/lib/python3.10/site-packages/torch/nn/functional.py" source_line=2900}
  %reshape.986 = bf16[] reshape(bf16[1]{0} %broadcast.985), metadata={op_type="aten__expand" op_name="aten__expand" source_file="/home/kojoe/.local/lib/python3.10/site-packages/torch/nn/functional.py" source_line=2900}
  %broadcast.987 = bf16[1025]{0} broadcast(bf16[] %reshape.986), dimensions={}, metadata={op_type="aten__expand" op_name="aten__expand" source_file="/home/kojoe/.local/lib/python3.10/site-packages/torch/nn/functional.py" source_line=2900}
  %constant.1011 = bf16[] constant(0), metadata={op_type="prim__Constant" op_name="prim__Constant" source_file="/home/kojoe/.local/lib/python3.10/site-packages/torch/nn/functional.py" source_line=2900}
  %reshape.1012 = bf16[1]{0} reshape(bf16[] %constant.1011), metadata={op_type="aten__expand" op_name="aten__expand" source_file="/home/kojoe/.local/lib/python3.10/site-packages/torch/nn/functional.py" source_line=2900}
  %broadcast.1013 = bf16[1]{0} broadcast(bf16[1]{0} %reshape.1012), dimensions={0}, metadata={op_type="aten__expand" op_name="aten__expand" source_file="/home/kojoe/.local/lib/python3.10/site-packages/torch/nn/functional.py" source_line=2900}
  %reshape.1014 = bf16[] reshape(bf16[1]{0} %broadcast.1013), metadata={op_type="aten__expand" op_name="aten__expand" source_file="/home/kojoe/.local/lib/python3.10/site-packages/torch/nn/functional.py" source_line=2900}
  %broadcast.1015 = bf16[1025]{0} broadcast(bf16[] %reshape.1014), dimensions={}, metadata={op_type="aten__expand" op_name="aten__expand" source_file="/home/kojoe/.local/lib/python3.10/site-packages/torch/nn/functional.py" source_line=2900}
  %constant.1016 = bf16[] constant(0), metadata={op_type="prim__Constant" op_name="prim__Constant" source_file="/home/kojoe/.local/lib/python3.10/site-packages/torch/nn/functional.py" source_line=2900}
  %reshape.1017 = bf16[1]{0} reshape(bf16[] %constant.1016), metadata={op_type="aten__expand" op_name="aten__expand" source_file="/home/kojoe/.local/lib/python3.10/site-packages/torch/nn/functional.py" source_line=2900}
  %broadcast.1018 = bf16[1]{0} broadcast(bf16[1]{0} %reshape.1017), dimensions={0}, metadata={op_type="aten__expand" op_name="aten__expand" source_file="/home/kojoe/.local/lib/python3.10/site-packages/torch/nn/functional.py" source_line=2900}
  %reshape.1019 = bf16[] reshape(bf16[1]{0} %broadcast.1018), metadata={op_type="aten__expand" op_name="aten__expand" source_file="/home/kojoe/.local/lib/python3.10/site-packages/torch/nn/functional.py" source_line=2900}
  %broadcast.1020 = bf16[1025]{0} broadcast(bf16[] %reshape.1019), dimensions={}, metadata={op_type="aten__expand" op_name="aten__expand" source_file="/home/kojoe/.local/lib/python3.10/site-packages/torch/nn/functional.py" source_line=2900}
  %constant.1044 = bf16[] constant(0), metadata={op_type="prim__Constant" op_name="prim__Constant" source_file="/home/kojoe/.local/lib/python3.10/site-packages/torch/nn/functional.py" source_line=2900}
  %reshape.1045 = bf16[1]{0} reshape(bf16[] %constant.1044), metadata={op_type="aten__expand" op_name="aten__expand" source_file="/home/kojoe/.local/lib/python3.10/site-packages/torch/nn/functional.py" source_line=2900}
  %broadcast.1046 = bf16[1]{0} broadcast(bf16[1]{0} %reshape.1045), dimensions={0}, metadata={op_type="aten__expand" op_name="aten__expand" source_file="/home/kojoe/.local/lib/python3.10/site-packages/torch/nn/functional.py" source_line=2900}
  %reshape.1047 = bf16[] reshape(bf16[1]{0} %broadcast.1046), metadata={op_type="aten__expand" op_name="aten__expand" source_file="/home/kojoe/.local/lib/python3.10/site-packages/torch/nn/functional.py" source_line=2900}
  %broadcast.1048 = bf16[1025]{0} broadcast(bf16[] %reshape.1047), dimensions={}, metadata={op_type="aten__expand" op_name="aten__expand" source_file="/home/kojoe/.local/lib/python3.10/site-packages/torch/nn/functional.py" source_line=2900}
  %constant.1049 = bf16[] constant(0), metadata={op_type="prim__Constant" op_name="prim__Constant" source_file="/home/kojoe/.local/lib/python3.10/site-packages/torch/nn/functional.py" source_line=2900}
  %reshape.1050 = bf16[1]{0} reshape(bf16[] %constant.1049), metadata={op_type="aten__expand" op_name="aten__expand" source_file="/home/kojoe/.local/lib/python3.10/site-packages/torch/nn/functional.py" source_line=2900}
  %broadcast.1051 = bf16[1]{0} broadcast(bf16[1]{0} %reshape.1050), dimensions={0}, metadata={op_type="aten__expand" op_name="aten__expand" source_file="/home/kojoe/.local/lib/python3.10/site-packages/torch/nn/functional.py" source_line=2900}
  %reshape.1052 = bf16[] reshape(bf16[1]{0} %broadcast.1051), metadata={op_type="aten__expand" op_name="aten__expand" source_file="/home/kojoe/.local/lib/python3.10/site-packages/torch/nn/functional.py" source_line=2900}
  %broadcast.1053 = bf16[1025]{0} broadcast(bf16[] %reshape.1052), dimensions={}, metadata={op_type="aten__expand" op_name="aten__expand" source_file="/home/kojoe/.local/lib/python3.10/site-packages/torch/nn/functional.py" source_line=2900}
  %constant.1077 = bf16[] constant(0), metadata={op_type="prim__Constant" op_name="prim__Constant" source_file="/home/kojoe/.local/lib/python3.10/site-packages/torch/nn/functional.py" source_line=2900}
  %reshape.1078 = bf16[1]{0} reshape(bf16[] %constant.1077), metadata={op_type="aten__expand" op_name="aten__expand" source_file="/home/kojoe/.local/lib/python3.10/site-packages/torch/nn/functional.py" source_line=2900}
  %broadcast.1079 = bf16[1]{0} broadcast(bf16[1]{0} %reshape.1078), dimensions={0}, metadata={op_type="aten__expand" op_name="aten__expand" source_file="/home/kojoe/.local/lib/python3.10/site-packages/torch/nn/functional.py" source_line=2900}
  %reshape.1080 = bf16[] reshape(bf16[1]{0} %broadcast.1079), metadata={op_type="aten__expand" op_name="aten__expand" source_file="/home/kojoe/.local/lib/python3.10/site-packages/torch/nn/functional.py" source_line=2900}
  %broadcast.1081 = bf16[1025]{0} broadcast(bf16[] %reshape.1080), dimensions={}, metadata={op_type="aten__expand" op_name="aten__expand" source_file="/home/kojoe/.local/lib/python3.10/site-packages/torch/nn/functional.py" source_line=2900}
  %constant.1082 = bf16[] constant(0), metadata={op_type="prim__Constant" op_name="prim__Constant" source_file="/home/kojoe/.local/lib/python3.10/site-packages/torch/nn/functional.py" source_line=2900}
  %reshape.1083 = bf16[1]{0} reshape(bf16[] %constant.1082), metadata={op_type="aten__expand" op_name="aten__expand" source_file="/home/kojoe/.local/lib/python3.10/site-packages/torch/nn/functional.py" source_line=2900}
  %broadcast.1084 = bf16[1]{0} broadcast(bf16[1]{0} %reshape.1083), dimensions={0}, metadata={op_type="aten__expand" op_name="aten__expand" source_file="/home/kojoe/.local/lib/python3.10/site-packages/torch/nn/functional.py" source_line=2900}
  %reshape.1085 = bf16[] reshape(bf16[1]{0} %broadcast.1084), metadata={op_type="aten__expand" op_name="aten__expand" source_file="/home/kojoe/.local/lib/python3.10/site-packages/torch/nn/functional.py" source_line=2900}
  %broadcast.1086 = bf16[1025]{0} broadcast(bf16[] %reshape.1085), dimensions={}, metadata={op_type="aten__expand" op_name="aten__expand" source_file="/home/kojoe/.local/lib/python3.10/site-packages/torch/nn/functional.py" source_line=2900}
  %constant.1110 = bf16[] constant(0), metadata={op_type="prim__Constant" op_name="prim__Constant" source_file="/home/kojoe/.local/lib/python3.10/site-packages/torch/nn/functional.py" source_line=2900}
  %reshape.1111 = bf16[1]{0} reshape(bf16[] %constant.1110), metadata={op_type="aten__expand" op_name="aten__expand" source_file="/home/kojoe/.local/lib/python3.10/site-packages/torch/nn/functional.py" source_line=2900}
  %broadcast.1112 = bf16[1]{0} broadcast(bf16[1]{0} %reshape.1111), dimensions={0}, metadata={op_type="aten__expand" op_name="aten__expand" source_file="/home/kojoe/.local/lib/python3.10/site-packages/torch/nn/functional.py" source_line=2900}
  %reshape.1113 = bf16[] reshape(bf16[1]{0} %broadcast.1112), metadata={op_type="aten__expand" op_name="aten__expand" source_file="/home/kojoe/.local/lib/python3.10/site-packages/torch/nn/functional.py" source_line=2900}
  %broadcast.1114 = bf16[1025]{0} broadcast(bf16[] %reshape.1113), dimensions={}, metadata={op_type="aten__expand" op_name="aten__expand" source_file="/home/kojoe/.local/lib/python3.10/site-packages/torch/nn/functional.py" source_line=2900}
  %constant.1115 = bf16[] constant(0), metadata={op_type="prim__Constant" op_name="prim__Constant" source_file="/home/kojoe/.local/lib/python3.10/site-packages/torch/nn/functional.py" source_line=2900}
  %reshape.1116 = bf16[1]{0} reshape(bf16[] %constant.1115), metadata={op_type="aten__expand" op_name="aten__expand" source_file="/home/kojoe/.local/lib/python3.10/site-packages/torch/nn/functional.py" source_line=2900}
  %broadcast.1117 = bf16[1]{0} broadcast(bf16[1]{0} %reshape.1116), dimensions={0}, metadata={op_type="aten__expand" op_name="aten__expand" source_file="/home/kojoe/.local/lib/python3.10/site-packages/torch/nn/functional.py" source_line=2900}
  %reshape.1118 = bf16[] reshape(bf16[1]{0} %broadcast.1117), metadata={op_type="aten__expand" op_name="aten__expand" source_file="/home/kojoe/.local/lib/python3.10/site-packages/torch/nn/functional.py" source_line=2900}
  %broadcast.1119 = bf16[1025]{0} broadcast(bf16[] %reshape.1118), dimensions={}, metadata={op_type="aten__expand" op_name="aten__expand" source_file="/home/kojoe/.local/lib/python3.10/site-packages/torch/nn/functional.py" source_line=2900}
  %constant.1143 = bf16[] constant(0), metadata={op_type="prim__Constant" op_name="prim__Constant" source_file="/home/kojoe/.local/lib/python3.10/site-packages/torch/nn/functional.py" source_line=2900}
  %reshape.1144 = bf16[1]{0} reshape(bf16[] %constant.1143), metadata={op_type="aten__expand" op_name="aten__expand" source_file="/home/kojoe/.local/lib/python3.10/site-packages/torch/nn/functional.py" source_line=2900}
  %broadcast.1145 = bf16[1]{0} broadcast(bf16[1]{0} %reshape.1144), dimensions={0}, metadata={op_type="aten__expand" op_name="aten__expand" source_file="/home/kojoe/.local/lib/python3.10/site-packages/torch/nn/functional.py" source_line=2900}
  %reshape.1146 = bf16[] reshape(bf16[1]{0} %broadcast.1145), metadata={op_type="aten__expand" op_name="aten__expand" source_file="/home/kojoe/.local/lib/python3.10/site-packages/torch/nn/functional.py" source_line=2900}
  %broadcast.1147 = bf16[1025]{0} broadcast(bf16[] %reshape.1146), dimensions={}, metadata={op_type="aten__expand" op_name="aten__expand" source_file="/home/kojoe/.local/lib/python3.10/site-packages/torch/nn/functional.py" source_line=2900}
  %constant.1148 = bf16[] constant(0), metadata={op_type="prim__Constant" op_name="prim__Constant" source_file="/home/kojoe/.local/lib/python3.10/site-packages/torch/nn/functional.py" source_line=2900}
  %reshape.1149 = bf16[1]{0} reshape(bf16[] %constant.1148), metadata={op_type="aten__expand" op_name="aten__expand" source_file="/home/kojoe/.local/lib/python3.10/site-packages/torch/nn/functional.py" source_line=2900}
  %broadcast.1150 = bf16[1]{0} broadcast(bf16[1]{0} %reshape.1149), dimensions={0}, metadata={op_type="aten__expand" op_name="aten__expand" source_file="/home/kojoe/.local/lib/python3.10/site-packages/torch/nn/functional.py" source_line=2900}
  %reshape.1151 = bf16[] reshape(bf16[1]{0} %broadcast.1150), metadata={op_type="aten__expand" op_name="aten__expand" source_file="/home/kojoe/.local/lib/python3.10/site-packages/torch/nn/functional.py" source_line=2900}
  %broadcast.1152 = bf16[1025]{0} broadcast(bf16[] %reshape.1151), dimensions={}, metadata={op_type="aten__expand" op_name="aten__expand" source_file="/home/kojoe/.local/lib/python3.10/site-packages/torch/nn/functional.py" source_line=2900}
  %constant.1176 = bf16[] constant(0), metadata={op_type="prim__Constant" op_name="prim__Constant" source_file="/home/kojoe/.local/lib/python3.10/site-packages/torch/nn/functional.py" source_line=2900}
  %reshape.1177 = bf16[1]{0} reshape(bf16[] %constant.1176), metadata={op_type="aten__expand" op_name="aten__expand" source_file="/home/kojoe/.local/lib/python3.10/site-packages/torch/nn/functional.py" source_line=2900}
  %broadcast.1178 = bf16[1]{0} broadcast(bf16[1]{0} %reshape.1177), dimensions={0}, metadata={op_type="aten__expand" op_name="aten__expand" source_file="/home/kojoe/.local/lib/python3.10/site-packages/torch/nn/functional.py" source_line=2900}
  %reshape.1179 = bf16[] reshape(bf16[1]{0} %broadcast.1178), metadata={op_type="aten__expand" op_name="aten__expand" source_file="/home/kojoe/.local/lib/python3.10/site-packages/torch/nn/functional.py" source_line=2900}
  %broadcast.1180 = bf16[1025]{0} broadcast(bf16[] %reshape.1179), dimensions={}, metadata={op_type="aten__expand" op_name="aten__expand" source_file="/home/kojoe/.local/lib/python3.10/site-packages/torch/nn/functional.py" source_line=2900}
  %constant.1181 = bf16[] constant(0), metadata={op_type="prim__Constant" op_name="prim__Constant" source_file="/home/kojoe/.local/lib/python3.10/site-packages/torch/nn/functional.py" source_line=2900}
  %reshape.1182 = bf16[1]{0} reshape(bf16[] %constant.1181), metadata={op_type="aten__expand" op_name="aten__expand" source_file="/home/kojoe/.local/lib/python3.10/site-packages/torch/nn/functional.py" source_line=2900}
  %broadcast.1183 = bf16[1]{0} broadcast(bf16[1]{0} %reshape.1182), dimensions={0}, metadata={op_type="aten__expand" op_name="aten__expand" source_file="/home/kojoe/.local/lib/python3.10/site-packages/torch/nn/functional.py" source_line=2900}
  %reshape.1184 = bf16[] reshape(bf16[1]{0} %broadcast.1183), metadata={op_type="aten__expand" op_name="aten__expand" source_file="/home/kojoe/.local/lib/python3.10/site-packages/torch/nn/functional.py" source_line=2900}
  %broadcast.1185 = bf16[1025]{0} broadcast(bf16[] %reshape.1184), dimensions={}, metadata={op_type="aten__expand" op_name="aten__expand" source_file="/home/kojoe/.local/lib/python3.10/site-packages/torch/nn/functional.py" source_line=2900}
  %constant.1209 = bf16[] constant(0), metadata={op_type="prim__Constant" op_name="prim__Constant" source_file="/home/kojoe/.local/lib/python3.10/site-packages/torch/nn/functional.py" source_line=2900}
  %reshape.1210 = bf16[1]{0} reshape(bf16[] %constant.1209), metadata={op_type="aten__expand" op_name="aten__expand" source_file="/home/kojoe/.local/lib/python3.10/site-packages/torch/nn/functional.py" source_line=2900}
  %broadcast.1211 = bf16[1]{0} broadcast(bf16[1]{0} %reshape.1210), dimensions={0}, metadata={op_type="aten__expand" op_name="aten__expand" source_file="/home/kojoe/.local/lib/python3.10/site-packages/torch/nn/functional.py" source_line=2900}
  %reshape.1212 = bf16[] reshape(bf16[1]{0} %broadcast.1211), metadata={op_type="aten__expand" op_name="aten__expand" source_file="/home/kojoe/.local/lib/python3.10/site-packages/torch/nn/functional.py" source_line=2900}
  %broadcast.1213 = bf16[1025]{0} broadcast(bf16[] %reshape.1212), dimensions={}, metadata={op_type="aten__expand" op_name="aten__expand" source_file="/home/kojoe/.local/lib/python3.10/site-packages/torch/nn/functional.py" source_line=2900}
  %constant.1214 = bf16[] constant(0), metadata={op_type="prim__Constant" op_name="prim__Constant" source_file="/home/kojoe/.local/lib/python3.10/site-packages/torch/nn/functional.py" source_line=2900}
  %reshape.1215 = bf16[1]{0} reshape(bf16[] %constant.1214), metadata={op_type="aten__expand" op_name="aten__expand" source_file="/home/kojoe/.local/lib/python3.10/site-packages/torch/nn/functional.py" source_line=2900}
  %broadcast.1216 = bf16[1]{0} broadcast(bf16[1]{0} %reshape.1215), dimensions={0}, metadata={op_type="aten__expand" op_name="aten__expand" source_file="/home/kojoe/.local/lib/python3.10/site-packages/torch/nn/functional.py" source_line=2900}
  %reshape.1217 = bf16[] reshape(bf16[1]{0} %broadcast.1216), metadata={op_type="aten__expand" op_name="aten__expand" source_file="/home/kojoe/.local/lib/python3.10/site-packages/torch/nn/functional.py" source_line=2900}
  %broadcast.1218 = bf16[1025]{0} broadcast(bf16[] %reshape.1217), dimensions={}, metadata={op_type="aten__expand" op_name="aten__expand" source_file="/home/kojoe/.local/lib/python3.10/site-packages/torch/nn/functional.py" source_line=2900}
  %constant.1242 = bf16[] constant(0), metadata={op_type="prim__Constant" op_name="prim__Constant" source_file="/home/kojoe/.local/lib/python3.10/site-packages/torch/nn/functional.py" source_line=2900}
  %reshape.1243 = bf16[1]{0} reshape(bf16[] %constant.1242), metadata={op_type="aten__expand" op_name="aten__expand" source_file="/home/kojoe/.local/lib/python3.10/site-packages/torch/nn/functional.py" source_line=2900}
  %broadcast.1244 = bf16[1]{0} broadcast(bf16[1]{0} %reshape.1243), dimensions={0}, metadata={op_type="aten__expand" op_name="aten__expand" source_file="/home/kojoe/.local/lib/python3.10/site-packages/torch/nn/functional.py" source_line=2900}
  %reshape.1245 = bf16[] reshape(bf16[1]{0} %broadcast.1244), metadata={op_type="aten__expand" op_name="aten__expand" source_file="/home/kojoe/.local/lib/python3.10/site-packages/torch/nn/functional.py" source_line=2900}
  %broadcast.1246 = bf16[1025]{0} broadcast(bf16[] %reshape.1245), dimensions={}, metadata={op_type="aten__expand" op_name="aten__expand" source_file="/home/kojoe/.local/lib/python3.10/site-packages/torch/nn/functional.py" source_line=2900}
  %constant.1247 = bf16[] constant(0), metadata={op_type="prim__Constant" op_name="prim__Constant" source_file="/home/kojoe/.local/lib/python3.10/site-packages/torch/nn/functional.py" source_line=2900}
  %reshape.1248 = bf16[1]{0} reshape(bf16[] %constant.1247), metadata={op_type="aten__expand" op_name="aten__expand" source_file="/home/kojoe/.local/lib/python3.10/site-packages/torch/nn/functional.py" source_line=2900}
  %broadcast.1249 = bf16[1]{0} broadcast(bf16[1]{0} %reshape.1248), dimensions={0}, metadata={op_type="aten__expand" op_name="aten__expand" source_file="/home/kojoe/.local/lib/python3.10/site-packages/torch/nn/functional.py" source_line=2900}
  %reshape.1250 = bf16[] reshape(bf16[1]{0} %broadcast.1249), metadata={op_type="aten__expand" op_name="aten__expand" source_file="/home/kojoe/.local/lib/python3.10/site-packages/torch/nn/functional.py" source_line=2900}
  %broadcast.1251 = bf16[1025]{0} broadcast(bf16[] %reshape.1250), dimensions={}, metadata={op_type="aten__expand" op_name="aten__expand" source_file="/home/kojoe/.local/lib/python3.10/site-packages/torch/nn/functional.py" source_line=2900}
  %constant.1275 = bf16[] constant(0), metadata={op_type="prim__Constant" op_name="prim__Constant" source_file="/home/kojoe/.local/lib/python3.10/site-packages/torch/nn/functional.py" source_line=2900}
  %reshape.1276 = bf16[1]{0} reshape(bf16[] %constant.1275), metadata={op_type="aten__expand" op_name="aten__expand" source_file="/home/kojoe/.local/lib/python3.10/site-packages/torch/nn/functional.py" source_line=2900}
  %broadcast.1277 = bf16[1]{0} broadcast(bf16[1]{0} %reshape.1276), dimensions={0}, metadata={op_type="aten__expand" op_name="aten__expand" source_file="/home/kojoe/.local/lib/python3.10/site-packages/torch/nn/functional.py" source_line=2900}
  %reshape.1278 = bf16[] reshape(bf16[1]{0} %broadcast.1277), metadata={op_type="aten__expand" op_name="aten__expand" source_file="/home/kojoe/.local/lib/python3.10/site-packages/torch/nn/functional.py" source_line=2900}
  %broadcast.1279 = bf16[1025]{0} broadcast(bf16[] %reshape.1278), dimensions={}, metadata={op_type="aten__expand" op_name="aten__expand" source_file="/home/kojoe/.local/lib/python3.10/site-packages/torch/nn/functional.py" source_line=2900}
  %constant.1280 = bf16[] constant(0), metadata={op_type="prim__Constant" op_name="prim__Constant" source_file="/home/kojoe/.local/lib/python3.10/site-packages/torch/nn/functional.py" source_line=2900}
  %reshape.1281 = bf16[1]{0} reshape(bf16[] %constant.1280), metadata={op_type="aten__expand" op_name="aten__expand" source_file="/home/kojoe/.local/lib/python3.10/site-packages/torch/nn/functional.py" source_line=2900}
  %broadcast.1282 = bf16[1]{0} broadcast(bf16[1]{0} %reshape.1281), dimensions={0}, metadata={op_type="aten__expand" op_name="aten__expand" source_file="/home/kojoe/.local/lib/python3.10/site-packages/torch/nn/functional.py" source_line=2900}
  %reshape.1283 = bf16[] reshape(bf16[1]{0} %broadcast.1282), metadata={op_type="aten__expand" op_name="aten__expand" source_file="/home/kojoe/.local/lib/python3.10/site-packages/torch/nn/functional.py" source_line=2900}
  %broadcast.1284 = bf16[1025]{0} broadcast(bf16[] %reshape.1283), dimensions={}, metadata={op_type="aten__expand" op_name="aten__expand" source_file="/home/kojoe/.local/lib/python3.10/site-packages/torch/nn/functional.py" source_line=2900}
  %constant.1308 = bf16[] constant(0), metadata={op_type="prim__Constant" op_name="prim__Constant" source_file="/home/kojoe/.local/lib/python3.10/site-packages/torch/nn/functional.py" source_line=2900}
  %reshape.1309 = bf16[1]{0} reshape(bf16[] %constant.1308), metadata={op_type="aten__expand" op_name="aten__expand" source_file="/home/kojoe/.local/lib/python3.10/site-packages/torch/nn/functional.py" source_line=2900}
  %broadcast.1310 = bf16[1]{0} broadcast(bf16[1]{0} %reshape.1309), dimensions={0}, metadata={op_type="aten__expand" op_name="aten__expand" source_file="/home/kojoe/.local/lib/python3.10/site-packages/torch/nn/functional.py" source_line=2900}
  %reshape.1311 = bf16[] reshape(bf16[1]{0} %broadcast.1310), metadata={op_type="aten__expand" op_name="aten__expand" source_file="/home/kojoe/.local/lib/python3.10/site-packages/torch/nn/functional.py" source_line=2900}
  %broadcast.1312 = bf16[1025]{0} broadcast(bf16[] %reshape.1311), dimensions={}, metadata={op_type="aten__expand" op_name="aten__expand" source_file="/home/kojoe/.local/lib/python3.10/site-packages/torch/nn/functional.py" source_line=2900}
  %constant.1313 = bf16[] constant(0), metadata={op_type="prim__Constant" op_name="prim__Constant" source_file="/home/kojoe/.local/lib/python3.10/site-packages/torch/nn/functional.py" source_line=2900}
  %reshape.1314 = bf16[1]{0} reshape(bf16[] %constant.1313), metadata={op_type="aten__expand" op_name="aten__expand" source_file="/home/kojoe/.local/lib/python3.10/site-packages/torch/nn/functional.py" source_line=2900}
  %broadcast.1315 = bf16[1]{0} broadcast(bf16[1]{0} %reshape.1314), dimensions={0}, metadata={op_type="aten__expand" op_name="aten__expand" source_file="/home/kojoe/.local/lib/python3.10/site-packages/torch/nn/functional.py" source_line=2900}
  %reshape.1316 = bf16[] reshape(bf16[1]{0} %broadcast.1315), metadata={op_type="aten__expand" op_name="aten__expand" source_file="/home/kojoe/.local/lib/python3.10/site-packages/torch/nn/functional.py" source_line=2900}
  %broadcast.1317 = bf16[1025]{0} broadcast(bf16[] %reshape.1316), dimensions={}, metadata={op_type="aten__expand" op_name="aten__expand" source_file="/home/kojoe/.local/lib/python3.10/site-packages/torch/nn/functional.py" source_line=2900}
  %constant.1341 = bf16[] constant(0), metadata={op_type="prim__Constant" op_name="prim__Constant" source_file="/home/kojoe/.local/lib/python3.10/site-packages/torch/nn/functional.py" source_line=2900}
  %reshape.1342 = bf16[1]{0} reshape(bf16[] %constant.1341), metadata={op_type="aten__expand" op_name="aten__expand" source_file="/home/kojoe/.local/lib/python3.10/site-packages/torch/nn/functional.py" source_line=2900}
  %broadcast.1343 = bf16[1]{0} broadcast(bf16[1]{0} %reshape.1342), dimensions={0}, metadata={op_type="aten__expand" op_name="aten__expand" source_file="/home/kojoe/.local/lib/python3.10/site-packages/torch/nn/functional.py" source_line=2900}
  %reshape.1344 = bf16[] reshape(bf16[1]{0} %broadcast.1343), metadata={op_type="aten__expand" op_name="aten__expand" source_file="/home/kojoe/.local/lib/python3.10/site-packages/torch/nn/functional.py" source_line=2900}
  %broadcast.1345 = bf16[1025]{0} broadcast(bf16[] %reshape.1344), dimensions={}, metadata={op_type="aten__expand" op_name="aten__expand" source_file="/home/kojoe/.local/lib/python3.10/site-packages/torch/nn/functional.py" source_line=2900}
  %constant.1346 = bf16[] constant(0), metadata={op_type="prim__Constant" op_name="prim__Constant" source_file="/home/kojoe/.local/lib/python3.10/site-packages/torch/nn/functional.py" source_line=2900}
  %reshape.1347 = bf16[1]{0} reshape(bf16[] %constant.1346), metadata={op_type="aten__expand" op_name="aten__expand" source_file="/home/kojoe/.local/lib/python3.10/site-packages/torch/nn/functional.py" source_line=2900}
  %broadcast.1348 = bf16[1]{0} broadcast(bf16[1]{0} %reshape.1347), dimensions={0}, metadata={op_type="aten__expand" op_name="aten__expand" source_file="/home/kojoe/.local/lib/python3.10/site-packages/torch/nn/functional.py" source_line=2900}
  %reshape.1349 = bf16[] reshape(bf16[1]{0} %broadcast.1348), metadata={op_type="aten__expand" op_name="aten__expand" source_file="/home/kojoe/.local/lib/python3.10/site-packages/torch/nn/functional.py" source_line=2900}
  %broadcast.1350 = bf16[1025]{0} broadcast(bf16[] %reshape.1349), dimensions={}, metadata={op_type="aten__expand" op_name="aten__expand" source_file="/home/kojoe/.local/lib/python3.10/site-packages/torch/nn/functional.py" source_line=2900}
  %constant.1374 = bf16[] constant(0), metadata={op_type="prim__Constant" op_name="prim__Constant" source_file="/home/kojoe/.local/lib/python3.10/site-packages/torch/nn/functional.py" source_line=2900}
  %reshape.1375 = bf16[1]{0} reshape(bf16[] %constant.1374), metadata={op_type="aten__expand" op_name="aten__expand" source_file="/home/kojoe/.local/lib/python3.10/site-packages/torch/nn/functional.py" source_line=2900}
  %broadcast.1376 = bf16[1]{0} broadcast(bf16[1]{0} %reshape.1375), dimensions={0}, metadata={op_type="aten__expand" op_name="aten__expand" source_file="/home/kojoe/.local/lib/python3.10/site-packages/torch/nn/functional.py" source_line=2900}
  %reshape.1377 = bf16[] reshape(bf16[1]{0} %broadcast.1376), metadata={op_type="aten__expand" op_name="aten__expand" source_file="/home/kojoe/.local/lib/python3.10/site-packages/torch/nn/functional.py" source_line=2900}
  %broadcast.1378 = bf16[1025]{0} broadcast(bf16[] %reshape.1377), dimensions={}, metadata={op_type="aten__expand" op_name="aten__expand" source_file="/home/kojoe/.local/lib/python3.10/site-packages/torch/nn/functional.py" source_line=2900}
  %constant.1379 = bf16[] constant(0), metadata={op_type="prim__Constant" op_name="prim__Constant" source_file="/home/kojoe/.local/lib/python3.10/site-packages/torch/nn/functional.py" source_line=2900}
  %reshape.1380 = bf16[1]{0} reshape(bf16[] %constant.1379), metadata={op_type="aten__expand" op_name="aten__expand" source_file="/home/kojoe/.local/lib/python3.10/site-packages/torch/nn/functional.py" source_line=2900}
  %broadcast.1381 = bf16[1]{0} broadcast(bf16[1]{0} %reshape.1380), dimensions={0}, metadata={op_type="aten__expand" op_name="aten__expand" source_file="/home/kojoe/.local/lib/python3.10/site-packages/torch/nn/functional.py" source_line=2900}
  %reshape.1382 = bf16[] reshape(bf16[1]{0} %broadcast.1381), metadata={op_type="aten__expand" op_name="aten__expand" source_file="/home/kojoe/.local/lib/python3.10/site-packages/torch/nn/functional.py" source_line=2900}
  %broadcast.1383 = bf16[1025]{0} broadcast(bf16[] %reshape.1382), dimensions={}, metadata={op_type="aten__expand" op_name="aten__expand" source_file="/home/kojoe/.local/lib/python3.10/site-packages/torch/nn/functional.py" source_line=2900}
  %constant.1407 = bf16[] constant(0), metadata={op_type="prim__Constant" op_name="prim__Constant" source_file="/home/kojoe/.local/lib/python3.10/site-packages/torch/nn/functional.py" source_line=2900}
  %reshape.1408 = bf16[1]{0} reshape(bf16[] %constant.1407), metadata={op_type="aten__expand" op_name="aten__expand" source_file="/home/kojoe/.local/lib/python3.10/site-packages/torch/nn/functional.py" source_line=2900}
  %broadcast.1409 = bf16[1]{0} broadcast(bf16[1]{0} %reshape.1408), dimensions={0}, metadata={op_type="aten__expand" op_name="aten__expand" source_file="/home/kojoe/.local/lib/python3.10/site-packages/torch/nn/functional.py" source_line=2900}
…
  %broadcast.13080 = f32[1,310]{1,0} broadcast(f32[] %select.13079), dimensions={}, metadata={op_type="aten__mean" op_name="aten__mean" source_file="/dev/shm/modules/transformers_modules/radna/XLA-InternVL2-8B/746cd35e611234c48f8dc5c61dbe30b5a782a208/modeling_internlm2.py" source_line=141}
  %multiply.13081 = f32[1,310]{1,0} multiply(f32[1,310]{1,0} %reduce.13072, f32[1,310]{1,0} %broadcast.13080), metadata={op_type="aten__mean" op_name="aten__mean" source_file="/dev/shm/modules/transformers_modules/radna/XLA-InternVL2-8B/746cd35e611234c48f8dc5c61dbe30b5a782a208/modeling_internlm2.py" source_line=141}
  %reshape.13082 = f32[1,310,1]{2,1,0} reshape(f32[1,310]{1,0} %multiply.13081), metadata={op_type="aten__mean" op_name="aten__mean" source_file="/dev/shm/modules/transformers_modules/radna/XLA-InternVL2-8B/746cd35e611234c48f8dc5c61dbe30b5a782a208/modeling_internlm2.py" source_line=141}
  %convert.13083 = f32[1,310,1]{2,1,0} convert(f32[1,310,1]{2,1,0} %reshape.13082), metadata={op_type="aten__mean" op_name="aten__mean" source_file="/dev/shm/modules/transformers_modules/radna/XLA-InternVL2-8B/746cd35e611234c48f8dc5c61dbe30b5a782a208/modeling_internlm2.py" source_line=141}
  %constant.30 = f32[] constant(1), metadata={op_type="prim__Constant" op_name="prim__Constant" source_file="/dev/shm/modules/transformers_modules/radna/XLA-InternVL2-8B/746cd35e611234c48f8dc5c61dbe30b5a782a208/modeling_internlm2.py" source_line=142}
  %multiply.13084 = f32[] multiply(f32[] %p4.23, f32[] %constant.30), metadata={op_type="aten__add" op_name="aten__add.732/aten__add" source_file="/dev/shm/modules/transformers_modules/radna/XLA-InternVL2-8B/746cd35e611234c48f8dc5c61dbe30b5a782a208/modeling_internlm2.py" source_line=142}
  %broadcast.13085 = f32[1,310,1]{2,1,0} broadcast(f32[] %multiply.13084), dimensions={}, metadata={op_type="aten__add" op_name="aten__add.732/aten__add" source_file="/dev/shm/modules/transformers_modules/radna/XLA-InternVL2-8B/746cd35e611234c48f8dc5c61dbe30b5a782a208/modeling_internlm2.py" source_line=142}
  %add.13086 = f32[1,310,1]{2,1,0} add(f32[1,310,1]{2,1,0} %convert.13083, f32[1,310,1]{2,1,0} %broadcast.13085), metadata={op_type="aten__add" op_name="aten__add.732/aten__add" source_file="/dev/shm/modules/transformers_modules/radna/XLA-InternVL2-8B/746cd35e611234c48f8dc5c61dbe30b5a782a208/modeling_internlm2.py" source_line=142}
  %rsqrt.13087 = f32[1,310,1]{2,1,0} rsqrt(f32[1,310,1]{2,1,0} %add.13086), metadata={op_type="aten__rsqrt" op_name="aten__rsqrt" source_file="/dev/shm/modules/transformers_modules/radna/XLA-InternVL2-8B/746cd35e611234c48f8dc5c61dbe30b5a782a208/modeling_internlm2.py" source_line=142}
  %reshape.13088 = f32[1,310]{1,0} reshape(f32[1,310,1]{2,1,0} %rsqrt.13087), metadata={op_type="aten__mul" op_name="aten__mul.733/aten__mul" source_file="/dev/shm/modules/transformers_modules/radna/XLA-InternVL2-8B/746cd35e611234c48f8dc5c61dbe30b5a782a208/modeling_internlm2.py" source_line=142}
  %broadcast.13089 = f32[1,310,4096]{2,1,0} broadcast(f32[1,310]{1,0} %reshape.13088), dimensions={0,1}, metadata={op_type="aten__mul" op_name="aten__mul.733/aten__mul" source_file="/dev/shm/modules/transformers_modules/radna/XLA-InternVL2-8B/746cd35e611234c48f8dc5c61dbe30b5a782a208/modeling_internlm2.py" source_line=142}
  %multiply.13090 = f32[1,310,4096]{2,1,0} multiply(f32[1,310,4096]{2,1,0} %convert.13063, f32[1,310,4096]{2,1,0} %broadcast.13089), metadata={op_type="aten__mul" op_name="aten__mul.733/aten__mul" source_file="/dev/shm/modules/transformers_modules/radna/XLA-InternVL2-8B/746cd35e611234c48f8dc5c61dbe30b5a782a208/modeling_internlm2.py" source_line=142}
  %convert.13091 = bf16[1,310,4096]{2,1,0} convert(f32[1,310,4096]{2,1,0} %multiply.13090), metadata={op_type="xla__cast" op_name="xla__cast" source_file="/dev/shm/modules/transformers_modules/radna/XLA-InternVL2-8B/746cd35e611234c48f8dc5c61dbe30b5a782a208/modeling_internlm2.py" source_line=143}
  %convert.13092 = f32[1,310,4096]{2,1,0} convert(bf16[1,310,4096]{2,1,0} %convert.13091), metadata={op_type="xla__cast" op_name="xla__cast" source_file="/dev/shm/modules/transformers_modules/radna/XLA-InternVL2-8B/746cd35e611234c48f8dc5c61dbe30b5a782a208/modeling_internlm2.py" source_line=143}
  %multiply.13096 = f32[1,310,4096]{2,1,0} multiply(f32[1,310,4096]{2,1,0} %broadcast.13095, f32[1,310,4096]{2,1,0} %convert.13092), metadata={op_type="aten__mul" op_name="aten__mul.734/aten__mul" source_file="/dev/shm/modules/transformers_modules/radna/XLA-InternVL2-8B/746cd35e611234c48f8dc5c61dbe30b5a782a208/modeling_internlm2.py" source_line=143}
  %convert.13097 = bf16[1,310,4096]{2,1,0} convert(f32[1,310,4096]{2,1,0} %multiply.13096), metadata={op_type="xla__cast" op_name="xla__cast" source_file="/dev/shm/modules/transformers_modules/radna/XLA-InternVL2-8B/746cd35e611234c48f8dc5c61dbe30b5a782a208/modeling_internlm2.py" source_line=143}
  %reshape.13104 = bf16[310,4096]{1,0} reshape(bf16[1,310,4096]{2,1,0} %convert.13097), metadata={op_type="aten__view" op_name="aten__view" source_file="/home/kojoe/.local/lib/python3.10/site-packages/torch/nn/modules/linear.py" source_line=125}
  %p649.13102 = bf16[14336,4096]{1,0} parameter(649), sharding={devices=[8,1]0,1,2,3,4,5,6,7}, metadata={op_type="xla__device_data" op_name="xla__device_data" source_file="/home/kojoe/.local/lib/python3.10/site-packages/torch_xla/distributed/spmd/xla_sharding.py" source_line=624}
  %transpose.13103 = bf16[4096,14336]{0,1} transpose(bf16[14336,4096]{1,0} %p649.13102), dimensions={1,0}, metadata={op_type="aten__permute" op_name="aten__permute" source_file="/home/kojoe/.local/lib/python3.10/site-packages/torch/nn/modules/linear.py" source_line=125}
  %dot.13105 = bf16[310,14336]{1,0} dot(bf16[310,4096]{1,0} %reshape.13104, bf16[4096,14336]{0,1} %transpose.13103), lhs_contracting_dims={1}, rhs_contracting_dims={0}, metadata={op_type="aten__mm" op_name="aten__mm" source_file="/home/kojoe/.local/lib/python3.10/site-packages/torch/nn/modules/linear.py" source_line=125}
  %reshape.13106 = bf16[1,310,14336]{2,1,0} reshape(bf16[310,14336]{1,0} %dot.13105), metadata={op_type="aten__view" op_name="aten__view" source_file="/home/kojoe/.local/lib/python3.10/site-packages/torch/nn/modules/linear.py" source_line=125}
  %logistic.13107 = bf16[1,310,14336]{2,1,0} logistic(bf16[1,310,14336]{2,1,0} %reshape.13106), metadata={op_type="aten__silu" op_name="aten__silu" source_file="/home/kojoe/.local/lib/python3.10/site-packages/torch/nn/functional.py" source_line=2380}
  %multiply.13108 = bf16[1,310,14336]{2,1,0} multiply(bf16[1,310,14336]{2,1,0} %reshape.13106, bf16[1,310,14336]{2,1,0} %logistic.13107), metadata={op_type="aten__silu" op_name="aten__silu" source_file="/home/kojoe/.local/lib/python3.10/site-packages/torch/nn/functional.py" source_line=2380}
  %convert.13109 = f32[1,310,14336]{2,1,0} convert(bf16[1,310,14336]{2,1,0} %multiply.13108), metadata={op_type="xla__cast" op_name="xla__cast" source_file="/dev/shm/modules/transformers_modules/radna/XLA-InternVL2-8B/746cd35e611234c48f8dc5c61dbe30b5a782a208/modeling_internlm2.py" source_line=262}
  %reshape.13098 = bf16[310,4096]{1,0} reshape(bf16[1,310,4096]{2,1,0} %convert.13097), metadata={op_type="aten__view" op_name="aten__view" source_file="/home/kojoe/.local/lib/python3.10/site-packages/torch/nn/modules/linear.py" source_line=125}
  %p6.28 = bf16[14336,4096]{1,0} parameter(6), sharding={devices=[8,1]0,1,2,3,4,5,6,7}, metadata={op_type="xla__device_data" op_name="xla__device_data" source_file="/home/kojoe/.local/lib/python3.10/site-packages/torch_xla/distributed/spmd/xla_sharding.py" source_line=624}
  %transpose.29 = bf16[4096,14336]{0,1} transpose(bf16[14336,4096]{1,0} %p6.28), dimensions={1,0}, metadata={op_type="aten__permute" op_name="aten__permute" source_file="/home/kojoe/.local/lib/python3.10/site-packages/torch/nn/modules/linear.py" source_line=125}
  %dot.13099 = bf16[310,14336]{1,0} dot(bf16[310,4096]{1,0} %reshape.13098, bf16[4096,14336]{0,1} %transpose.29), lhs_contracting_dims={1}, rhs_contracting_dims={0}, metadata={op_type="aten__mm" op_name="aten__mm" source_file="/home/kojoe/.local/lib/python3.10/site-packages/torch/nn/modules/linear.py" source_line=125}
  %reshape.13100 = bf16[1,310,14336]{2,1,0} reshape(bf16[310,14336]{1,0} %dot.13099), metadata={op_type="aten__view" op_name="aten__view" source_file="/home/kojoe/.local/lib/python3.10/site-packages/torch/nn/modules/linear.py" source_line=125}
  %convert.13101 = f32[1,310,14336]{2,1,0} convert(bf16[1,310,14336]{2,1,0} %reshape.13100), metadata={op_type="xla__cast" op_name="xla__cast" source_file="/dev/shm/modules/transformers_modules/radna/XLA-InternVL2-8B/746cd35e611234c48f8dc5c61dbe30b5a782a208/modeling_internlm2.py" source_line=262}
  %multiply.13110 = f32[1,310,14336]{2,1,0} multiply(f32[1,310,14336]{2,1,0} %convert.13109, f32[1,310,14336]{2,1,0} %convert.13101), metadata={op_type="aten__mul" op_name="aten__mul.735/aten__mul" source_file="/dev/shm/modules/transformers_modules/radna/XLA-InternVL2-8B/746cd35e611234c48f8dc5c61dbe30b5a782a208/modeling_internlm2.py" source_line=262}
  %convert.13111 = bf16[1,310,14336]{2,1,0} convert(f32[1,310,14336]{2,1,0} %multiply.13110), metadata={op_type="xla__cast" op_name="xla__cast" source_file="/dev/shm/modules/transformers_modules/radna/XLA-InternVL2-8B/746cd35e611234c48f8dc5c61dbe30b5a782a208/modeling_internlm2.py" source_line=262}
  %reshape.13112 = bf16[310,14336]{1,0} reshape(bf16[1,310,14336]{2,1,0} %convert.13111), metadata={op_type="aten__view" op_name="aten__view" source_file="/home/kojoe/.local/lib/python3.10/site-packages/torch/nn/modules/linear.py" source_line=125}
  %p5.26 = bf16[4096,14336]{1,0} parameter(5), sharding={devices=[1,8]0,1,2,3,4,5,6,7}, metadata={op_type="xla__device_data" op_name="xla__device_data" source_file="/home/kojoe/.local/lib/python3.10/site-packages/torch_xla/distributed/spmd/xla_sharding.py" source_line=624}
  %transpose.27 = bf16[14336,4096]{0,1} transpose(bf16[4096,14336]{1,0} %p5.26), dimensions={1,0}, metadata={op_type="aten__permute" op_name="aten__permute" source_file="/home/kojoe/.local/lib/python3.10/site-packages/torch/nn/modules/linear.py" source_line=125}
  %dot.13113 = bf16[310,4096]{1,0} dot(bf16[310,14336]{1,0} %reshape.13112, bf16[14336,4096]{0,1} %transpose.27), lhs_contracting_dims={1}, rhs_contracting_dims={0}, metadata={op_type="aten__mm" op_name="aten__mm" source_file="/home/kojoe/.local/lib/python3.10/site-packages/torch/nn/modules/linear.py" source_line=125}
  %reshape.13114 = bf16[1,310,4096]{2,1,0} reshape(bf16[310,4096]{1,0} %dot.13113), metadata={op_type="aten__view" op_name="aten__view" source_file="/home/kojoe/.local/lib/python3.10/site-packages/torch/nn/modules/linear.py" source_line=125}
  %constant.25 = bf16[] constant(1), metadata={op_type="prim__Constant" op_name="prim__Constant" source_file="/dev/shm/modules/transformers_modules/radna/XLA-InternVL2-8B/746cd35e611234c48f8dc5c61dbe30b5a782a208/modeling_internlm2.py" source_line=671}
  %broadcast.13115 = bf16[1,310,4096]{2,1,0} broadcast(bf16[] %constant.25), dimensions={}, metadata={op_type="aten__add" op_name="aten__add.736/aten__add" source_file="/dev/shm/modules/transformers_modules/radna/XLA-InternVL2-8B/746cd35e611234c48f8dc5c61dbe30b5a782a208/modeling_internlm2.py" source_line=671}
  %multiply.13116 = bf16[1,310,4096]{2,1,0} multiply(bf16[1,310,4096]{2,1,0} %reshape.13114, bf16[1,310,4096]{2,1,0} %broadcast.13115), metadata={op_type="aten__add" op_name="aten__add.736/aten__add" source_file="/dev/shm/modules/transformers_modules/radna/XLA-InternVL2-8B/746cd35e611234c48f8dc5c61dbe30b5a782a208/modeling_internlm2.py" source_line=671}
  %add.13117 = bf16[1,310,4096]{2,1,0} add(bf16[1,310,4096]{2,1,0} %add.13062, bf16[1,310,4096]{2,1,0} %multiply.13116), metadata={op_type="aten__add" op_name="aten__add.736/aten__add" source_file="/dev/shm/modules/transformers_modules/radna/XLA-InternVL2-8B/746cd35e611234c48f8dc5c61dbe30b5a782a208/modeling_internlm2.py" source_line=671}
  %convert.13118 = f32[1,310,4096]{2,1,0} convert(bf16[1,310,4096]{2,1,0} %add.13117), metadata={op_type="xla__cast" op_name="xla__cast" source_file="/dev/shm/modules/transformers_modules/radna/XLA-InternVL2-8B/746cd35e611234c48f8dc5c61dbe30b5a782a208/modeling_internlm2.py" source_line=140}
  %constant.24 = f32[] constant(2), metadata={op_type="prim__Constant" op_name="prim__Constant" source_file="/dev/shm/modules/transformers_modules/radna/XLA-InternVL2-8B/746cd35e611234c48f8dc5c61dbe30b5a782a208/modeling_internlm2.py" source_line=141}
  %broadcast.13119 = f32[1,310,4096]{2,1,0} broadcast(f32[] %constant.24), dimensions={}, metadata={op_type="aten__pow" op_name="aten__pow" source_file="/dev/shm/modules/transformers_modules/radna/XLA-InternVL2-8B/746cd35e611234c48f8dc5c61dbe30b5a782a208/modeling_internlm2.py" source_line=141}
  %power.13120 = f32[1,310,4096]{2,1,0} power(f32[1,310,4096]{2,1,0} %convert.13118, f32[1,310,4096]{2,1,0} %broadcast.13119), metadata={op_type="aten__pow" op_name="aten__pow" source_file="/dev/shm/modules/transformers_modules/radna/XLA-InternVL2-8B/746cd35e611234c48f8dc5c61dbe30b5a782a208/modeling_internlm2.py" source_line=141}
  %constant.13121 = f32[] constant(0), metadata={op_type="aten__mean" op_name="aten__mean" source_file="/dev/shm/modules/transformers_modules/radna/XLA-InternVL2-8B/746cd35e611234c48f8dc5c61dbe30b5a782a208/modeling_internlm2.py" source_line=141}
  %reduce.13127 = f32[1,310]{1,0} reduce(f32[1,310,4096]{2,1,0} %power.13120, f32[] %constant.13121), dimensions={2}, to_apply=%AddComputation.13123, metadata={op_type="aten__mean" op_name="aten__mean" source_file="/dev/shm/modules/transformers_modules/radna/XLA-InternVL2-8B/746cd35e611234c48f8dc5c61dbe30b5a782a208/modeling_internlm2.py" source_line=141}
  %constant.13122 = s32[] constant(4096), metadata={op_type="aten__mean" op_name="aten__mean" source_file="/dev/shm/modules/transformers_modules/radna/XLA-InternVL2-8B/746cd35e611234c48f8dc5c61dbe30b5a782a208/modeling_internlm2.py" source_line=141}
  %constant.13128 = s32[] constant(0), metadata={op_type="aten__mean" op_name="aten__mean" source_file="/dev/shm/modules/transformers_modules/radna/XLA-InternVL2-8B/746cd35e611234c48f8dc5c61dbe30b5a782a208/modeling_internlm2.py" source_line=141}
  %compare.13133 = pred[] compare(s32[] %constant.13122, s32[] %constant.13128), direction=NE, metadata={op_type="aten__mean" op_name="aten__mean" source_file="/dev/shm/modules/transformers_modules/radna/XLA-InternVL2-8B/746cd35e611234c48f8dc5c61dbe30b5a782a208/modeling_internlm2.py" source_line=141}
  %constant.13129 = f32[] constant(1), metadata={op_type="aten__mean" op_name="aten__mean" source_file="/dev/shm/modules/transformers_modules/radna/XLA-InternVL2-8B/746cd35e611234c48f8dc5c61dbe30b5a782a208/modeling_internlm2.py" source_line=141}
  %convert.13131 = f32[] convert(s32[] %constant.13122), metadata={op_type="aten__mean" op_name="aten__mean" source_file="/dev/shm/modules/transformers_modules/radna/XLA-InternVL2-8B/746cd35e611234c48f8dc5c61dbe30b5a782a208/modeling_internlm2.py" source_line=141}
  %divide.13132 = f32[] divide(f32[] %constant.13129, f32[] %convert.13131), metadata={op_type="aten__mean" op_name="aten__mean" source_file="/dev/shm/modules/transformers_modules/radna/XLA-InternVL2-8B/746cd35e611234c48f8dc5c61dbe30b5a782a208/modeling_internlm2.py" source_line=141}
  %constant.13130 = f32[] constant(nan), metadata={op_type="aten__mean" op_name="aten__mean" source_file="/dev/shm/modules/transformers_modules/radna/XLA-InternVL2-8B/746cd35e611234c48f8dc5c61dbe30b5a782a208/modeling_internlm2.py" source_line=141}
  %select.13134 = f32[] select(pred[] %compare.13133, f32[] %divide.13132, f32[] %constant.13130), metadata={op_type="aten__mean" op_name="aten__mean" source_file="/dev/shm/modules/transformers_modules/radna/XLA-InternVL2-8B/746cd35e611234c48f8dc5c61dbe30b5a782a208/modeling_internlm2.py" source_line=141}
  %broadcast.13135 = f32[1,310]{1,0} broadcast(f32[] %select.13134), dimensions={}, metadata={op_type="aten__mean" op_name="aten__mean" source_file="/dev/shm/modules/transformers_modules/radna/XLA-InternVL2-8B/746cd35e611234c48f8dc5c61dbe30b5a782a208/modeling_internlm2.py" source_line=141}
  %multiply.13136 = f32[1,310]{1,0} multiply(f32[1,310]{1,0} %reduce.13127, f32[1,310]{1,0} %broadcast.13135), metadata={op_type="aten__mean" op_name="aten__mean" source_file="/dev/shm/modules/transformers_modules/radna/XLA-InternVL2-8B/746cd35e611234c48f8dc5c61dbe30b5a782a208/modeling_internlm2.py" source_line=141}
  %reshape.13137 = f32[1,310,1]{2,1,0} reshape(f32[1,310]{1,0} %multiply.13136), metadata={op_type="aten__mean" op_name="aten__mean" source_file="/dev/shm/modules/transformers_modules/radna/XLA-InternVL2-8B/746cd35e611234c48f8dc5c61dbe30b5a782a208/modeling_internlm2.py" source_line=141}
  %convert.13138 = f32[1,310,1]{2,1,0} convert(f32[1,310,1]{2,1,0} %reshape.13137), metadata={op_type="aten__mean" op_name="aten__mean" source_file="/dev/shm/modules/transformers_modules/radna/XLA-InternVL2-8B/746cd35e611234c48f8dc5c61dbe30b5a782a208/modeling_internlm2.py" source_line=141}
  %constant.22 = f32[] constant(1), metadata={op_type="prim__Constant" op_name="prim__Constant" source_file="/dev/shm/modules/transformers_modules/radna/XLA-InternVL2-8B/746cd35e611234c48f8dc5c61dbe30b5a782a208/modeling_internlm2.py" source_line=142}
  %multiply.13139 = f32[] multiply(f32[] %p4.23, f32[] %constant.22), metadata={op_type="aten__add" op_name="aten__add.737/aten__add" source_file="/dev/shm/modules/transformers_modules/radna/XLA-InternVL2-8B/746cd35e611234c48f8dc5c61dbe30b5a782a208/modeling_internlm2.py" source_line=142}
  %broadcast.13140 = f32[1,310,1]{2,1,0} broadcast(f32[] %multiply.13139), dimensions={}, metadata={op_type="aten__add" op_name="aten__add.737/aten__add" source_file="/dev/shm/modules/transformers_modules/radna/XLA-InternVL2-8B/746cd35e611234c48f8dc5c61dbe30b5a782a208/modeling_internlm2.py" source_line=142}
  %add.13141 = f32[1,310,1]{2,1,0} add(f32[1,310,1]{2,1,0} %convert.13138, f32[1,310,1]{2,1,0} %broadcast.13140), metadata={op_type="aten__add" op_name="aten__add.737/aten__add" source_file="/dev/shm/modules/transformers_modules/radna/XLA-InternVL2-8B/746cd35e611234c48f8dc5c61dbe30b5a782a208/modeling_internlm2.py" source_line=142}
  %rsqrt.13142 = f32[1,310,1]{2,1,0} rsqrt(f32[1,310,1]{2,1,0} %add.13141), metadata={op_type="aten__rsqrt" op_name="aten__rsqrt" source_file="/dev/shm/modules/transformers_modules/radna/XLA-InternVL2-8B/746cd35e611234c48f8dc5c61dbe30b5a782a208/modeling_internlm2.py" source_line=142}
  %reshape.13143 = f32[1,310]{1,0} reshape(f32[1,310,1]{2,1,0} %rsqrt.13142), metadata={op_type="aten__mul" op_name="aten__mul.738/aten__mul" source_file="/dev/shm/modules/transformers_modules/radna/XLA-InternVL2-8B/746cd35e611234c48f8dc5c61dbe30b5a782a208/modeling_internlm2.py" source_line=142}
  %broadcast.13144 = f32[1,310,4096]{2,1,0} broadcast(f32[1,310]{1,0} %reshape.13143), dimensions={0,1}, metadata={op_type="aten__mul" op_name="aten__mul.738/aten__mul" source_file="/dev/shm/modules/transformers_modules/radna/XLA-InternVL2-8B/746cd35e611234c48f8dc5c61dbe30b5a782a208/modeling_internlm2.py" source_line=142}
  %multiply.13145 = f32[1,310,4096]{2,1,0} multiply(f32[1,310,4096]{2,1,0} %convert.13118, f32[1,310,4096]{2,1,0} %broadcast.13144), metadata={op_type="aten__mul" op_name="aten__mul.738/aten__mul" source_file="/dev/shm/modules/transformers_modules/radna/XLA-InternVL2-8B/746cd35e611234c48f8dc5c61dbe30b5a782a208/modeling_internlm2.py" source_line=142}
  %convert.13146 = bf16[1,310,4096]{2,1,0} convert(f32[1,310,4096]{2,1,0} %multiply.13145), metadata={op_type="xla__cast" op_name="xla__cast" source_file="/dev/shm/modules/transformers_modules/radna/XLA-InternVL2-8B/746cd35e611234c48f8dc5c61dbe30b5a782a208/modeling_internlm2.py" source_line=143}
  %convert.13147 = f32[1,310,4096]{2,1,0} convert(bf16[1,310,4096]{2,1,0} %convert.13146), metadata={op_type="xla__cast" op_name="xla__cast" source_file="/dev/shm/modules/transformers_modules/radna/XLA-InternVL2-8B/746cd35e611234c48f8dc5c61dbe30b5a782a208/modeling_internlm2.py" source_line=143}
  %multiply.13151 = f32[1,310,4096]{2,1,0} multiply(f32[1,310,4096]{2,1,0} %broadcast.13150, f32[1,310,4096]{2,1,0} %convert.13147), metadata={op_type="aten__mul" op_name="aten__mul.739/aten__mul" source_file="/dev/shm/modules/transformers_modules/radna/XLA-InternVL2-8B/746cd35e611234c48f8dc5c61dbe30b5a782a208/modeling_internlm2.py" source_line=143}
  %convert.13152 = bf16[1,310,4096]{2,1,0} convert(f32[1,310,4096]{2,1,0} %multiply.13151), metadata={op_type="xla__cast" op_name="xla__cast" source_file="/dev/shm/modules/transformers_modules/radna/XLA-InternVL2-8B/746cd35e611234c48f8dc5c61dbe30b5a782a208/modeling_internlm2.py" source_line=143}
  %reshape.13153 = bf16[310,4096]{1,0} reshape(bf16[1,310,4096]{2,1,0} %convert.13152), metadata={op_type="aten__view" op_name="aten__view" source_file="/home/kojoe/.local/lib/python3.10/site-packages/torch/nn/modules/linear.py" source_line=125}
  %p3.20 = bf16[92553,4096]{1,0} parameter(3), sharding={devices=[8,1]0,1,2,3,4,5,6,7}, metadata={op_type="xla__device_data" op_name="xla__device_data" source_file="/home/kojoe/.local/lib/python3.10/site-packages/torch_xla/distributed/spmd/xla_sharding.py" source_line=624}
  %transpose.21 = bf16[4096,92553]{0,1} transpose(bf16[92553,4096]{1,0} %p3.20), dimensions={1,0}, metadata={op_type="aten__permute" op_name="aten__permute" source_file="/home/kojoe/.local/lib/python3.10/site-packages/torch/nn/modules/linear.py" source_line=125}
  %dot.13154 = bf16[310,92553]{1,0} dot(bf16[310,4096]{1,0} %reshape.13153, bf16[4096,92553]{0,1} %transpose.21), lhs_contracting_dims={1}, rhs_contracting_dims={0}, metadata={op_type="aten__mm" op_name="aten__mm" source_file="/home/kojoe/.local/lib/python3.10/site-packages/torch/nn/modules/linear.py" source_line=125}
  %reshape.13155 = bf16[1,310,92553]{2,1,0} reshape(bf16[310,92553]{1,0} %dot.13154), metadata={op_type="aten__view" op_name="aten__view" source_file="/home/kojoe/.local/lib/python3.10/site-packages/torch/nn/modules/linear.py" source_line=125}
  %convert.13156 = f32[1,310,92553]{2,1,0} convert(bf16[1,310,92553]{2,1,0} %reshape.13155), metadata={op_type="xla__cast" op_name="xla__cast" source_file="/dev/shm/modules/transformers_modules/radna/XLA-InternVL2-8B/746cd35e611234c48f8dc5c61dbe30b5a782a208/modeling_internlm2.py" source_line=1082}
  %slice.13157 = f32[1,310,92553]{2,1,0} slice(f32[1,310,92553]{2,1,0} %convert.13156), slice={[0:1], [0:310], [0:92553]}, metadata={op_type="xla__select" op_name="xla__select" source_file="/home/kojoe/.local/lib/python3.10/site-packages/transformers/generation/utils.py" source_line=2969}
  %slice.13158 = f32[1,1,92553]{2,1,0} slice(f32[1,310,92553]{2,1,0} %slice.13157), slice={[0:1], [309:310], [0:92553]}, metadata={op_type="xla__generic_slice" op_name="xla__generic_slice" source_file="/home/kojoe/.local/lib/python3.10/site-packages/transformers/generation/utils.py" source_line=2969}
  %reshape.13159 = f32[1,92553]{1,0} reshape(f32[1,1,92553]{2,1,0} %slice.13158), metadata={op_type="aten__view" op_name="aten__view" source_file="/home/kojoe/.local/lib/python3.10/site-packages/transformers/generation/utils.py" source_line=2969}
  %slice.13160 = f32[1,92553]{1,0} slice(f32[1,92553]{1,0} %reshape.13159), slice={[0:1], [0:92553]}, metadata={op_type="xla__select" op_name="xla__select" source_file="/home/kojoe/.local/lib/python3.10/site-packages/transformers/generation/utils.py" source_line=2969}
  %iota.13161 = s32[1,92553]{1,0} iota(), iota_dimension=1, metadata={op_type="aten__topk" op_name="aten__topk" source_file="/home/kojoe/.local/lib/python3.10/site-packages/transformers/generation/logits_process.py" source_line=532}
  %sort.13168 = (f32[1,92553]{1,0}, s32[1,92553]{1,0}) sort(f32[1,92553]{1,0} %slice.13160, s32[1,92553]{1,0} %iota.13161), dimensions={1}, to_apply=%compare-greater-than.13162, metadata={op_type="aten__topk" op_name="aten__topk" source_file="/home/kojoe/.local/lib/python3.10/site-packages/transformers/generation/logits_process.py" source_line=532}
  %get-tuple-element.13171 = s32[1,92553]{1,0} get-tuple-element((f32[1,92553]{1,0}, s32[1,92553]{1,0}) %sort.13168), index=1, metadata={op_type="aten__topk" op_name="aten__topk" source_file="/home/kojoe/.local/lib/python3.10/site-packages/transformers/generation/logits_process.py" source_line=532}
  %slice.13172 = s32[1,50]{1,0} slice(s32[1,92553]{1,0} %get-tuple-element.13171), slice={[0:1], [0:50]}, metadata={op_type="aten__topk" op_name="aten__topk" source_file="/home/kojoe/.local/lib/python3.10/site-packages/transformers/generation/logits_process.py" source_line=532}
  %convert.13173 = s64[1,50]{1,0} convert(s32[1,50]{1,0} %slice.13172), metadata={op_type="aten__topk" op_name="aten__topk" source_file="/home/kojoe/.local/lib/python3.10/site-packages/transformers/generation/logits_process.py" source_line=532}
  %constant.17 = s64[] constant(2531011), metadata={op_type="prim__Constant" op_name="prim__Constant" source_file="/home/kojoe/.local/lib/python3.10/site-packages/transformers/generation/utils.py" source_line=2998}
  %constant.15 = s64[] constant(214013), metadata={op_type="prim__Constant" op_name="prim__Constant" source_file="/home/kojoe/.local/lib/python3.10/site-packages/transformers/generation/utils.py" source_line=2998}
  %p1.14 = s64[] parameter(1), sharding={replicated}, metadata={op_type="xla__device_data" op_name="xla__device_data" source_file="/home/kojoe/.local/lib/python3.10/site-packages/transformers/generation/utils.py" source_line=2998}
  %multiply.16 = s64[] multiply(s64[] %constant.15, s64[] %p1.14), metadata={op_type="aten__mul" op_name="aten__mul" source_file="/home/kojoe/.local/lib/python3.10/site-packages/transformers/generation/utils.py" source_line=2998}
  %add.18 = s64[] add(s64[] %constant.17, s64[] %multiply.16), metadata={op_type="aten__add" op_name="aten__add" source_file="/home/kojoe/.local/lib/python3.10/site-packages/transformers/generation/utils.py" source_line=2998}
  %convert.13221 = u64[] convert(s64[] %add.18), metadata={op_type="aten__multinomial" op_name="aten__multinomial" source_file="/home/kojoe/.local/lib/python3.10/site-packages/transformers/generation/utils.py" source_line=2998}
  %reshape.13223 = u64[1]{0} reshape(u64[] %convert.13221), metadata={op_type="aten__multinomial" op_name="aten__multinomial" source_file="/home/kojoe/.local/lib/python3.10/site-packages/transformers/generation/utils.py" source_line=2998}
  %constant.13222 = u64[] constant(0), metadata={op_type="aten__multinomial" op_name="aten__multinomial" source_file="/home/kojoe/.local/lib/python3.10/site-packages/transformers/generation/utils.py" source_line=2998}
  %reshape.13224 = u64[1]{0} reshape(u64[] %constant.13222), metadata={op_type="aten__multinomial" op_name="aten__multinomial" source_file="/home/kojoe/.local/lib/python3.10/site-packages/transformers/generation/utils.py" source_line=2998}
  %concatenate.13225 = u64[2]{0} concatenate(u64[1]{0} %reshape.13223, u64[1]{0} %reshape.13224), dimensions={0}, metadata={op_type="aten__multinomial" op_name="aten__multinomial" source_file="/home/kojoe/.local/lib/python3.10/site-packages/transformers/generation/utils.py" source_line=2998}
  %rng-bit-generator.13226 = (u64[2]{0}, u32[1,1]{1,0}) rng-bit-generator(u64[2]{0} %concatenate.13225), algorithm=rng_default, metadata={op_type="aten__multinomial" op_name="aten__multinomial" source_file="/home/kojoe/.local/lib/python3.10/site-packages/transformers/generation/utils.py" source_line=2998}
  %get-tuple-element.13228 = u64[2]{0} get-tuple-element((u64[2]{0}, u32[1,1]{1,0}) %rng-bit-generator.13226), index=0, metadata={op_type="aten__multinomial" op_name="aten__multinomial" source_file="/home/kojoe/.local/lib/python3.10/site-packages/transformers/generation/utils.py" source_line=2998}
  %constant.13244 = s32[] constant(92553), metadata={op_type="aten__multinomial" op_name="aten__multinomial" source_file="/home/kojoe/.local/lib/python3.10/site-packages/transformers/generation/utils.py" source_line=2998}
  %constant.13257 = s64[] constant(1), metadata={op_type="prim__Constant" op_name="prim__Constant" source_file="/home/kojoe/.local/lib/python3.10/site-packages/transformers/generation/utils.py" source_line=455}
  %reshape.13258 = s64[1,1]{1,0} reshape(s64[] %constant.13257), metadata={op_type="aten__expand" op_name="aten__expand" source_file="/home/kojoe/.local/lib/python3.10/site-packages/transformers/generation/utils.py" source_line=455}
  %broadcast.13259 = s64[1,1]{1,0} broadcast(s64[1,1]{1,0} %reshape.13258), dimensions={0,1}, metadata={op_type="aten__expand" op_name="aten__expand" source_file="/home/kojoe/.local/lib/python3.10/site-packages/transformers/generation/utils.py" source_line=455}
  %reshape.13260 = s64[1]{0} reshape(s64[1,1]{1,0} %broadcast.13259), metadata={op_type="aten__expand" op_name="aten__expand" source_file="/home/kojoe/.local/lib/python3.10/site-packages/transformers/generation/utils.py" source_line=455}
  %broadcast.13261 = s64[1,0]{1,0} broadcast(s64[1]{0} %reshape.13260), dimensions={0}, metadata={op_type="aten__expand" op_name="aten__expand" source_file="/home/kojoe/.local/lib/python3.10/site-packages/transformers/generation/utils.py" source_line=455}
  %get-tuple-element.13227 = u32[1,1]{1,0} get-tuple-element((u64[2]{0}, u32[1,1]{1,0}) %rng-bit-generator.13226), index=1, metadata={op_type="aten__multinomial" op_name="aten__multinomial" source_file="/home/kojoe/.local/lib/python3.10/site-packages/transformers/generation/utils.py" source_line=2998}
  %constant.13229 = u32[] constant(9), metadata={op_type="aten__multinomial" op_name="aten__multinomial" source_file="/home/kojoe/.local/lib/python3.10/site-packages/transformers/generation/utils.py" source_line=2998}
  %broadcast.13230 = u32[1,1]{1,0} broadcast(u32[] %constant.13229), dimensions={}, metadata={op_type="aten__multinomial" op_name="aten__multinomial" source_file="/home/kojoe/.local/lib/python3.10/site-packages/transformers/generation/utils.py" source_line=2998}
  %shift-right-logical.13231 = u32[1,1]{1,0} shift-right-logical(u32[1,1]{1,0} %get-tuple-element.13227, u32[1,1]{1,0} %broadcast.13230), metadata={op_type="aten__multinomial" op_name="aten__multinomial" source_file="/home/kojoe/.local/lib/python3.10/site-packages/transformers/generation/utils.py" source_line=2998}
  %convert.13232 = f32[1,1]{1,0} convert(u32[1,1]{1,0} %shift-right-logical.13231), metadata={op_type="aten__multinomial" op_name="aten__multinomial" source_file="/home/kojoe/.local/lib/python3.10/site-packages/transformers/generation/utils.py" source_line=2998}
  %constant.13233 = f32[] constant(1.1920929e-07), metadata={op_type="aten__multinomial" op_name="aten__multinomial" source_file="/home/kojoe/.local/lib/python3.10/site-packages/transformers/generation/utils.py" source_line=2998}
  %broadcast.13234 = f32[1,1]{1,0} broadcast(f32[] %constant.13233), dimensions={}, metadata={op_type="aten__multinomial" op_name="aten__multinomial" source_file="/home/kojoe/.local/lib/python3.10/site-packages/transformers/generation/utils.py" source_line=2998}
  %multiply.13235 = f32[1,1]{1,0} multiply(f32[1,1]{1,0} %convert.13232, f32[1,1]{1,0} %broadcast.13234), metadata={op_type="aten__multinomial" op_name="aten__multinomial" source_file="/home/kojoe/.local/lib/python3.10/site-packages/transformers/generation/utils.py" source_line=2998}
  %constant.13206 = f32[] constant(1), metadata={op_type="aten__multinomial" op_name="aten__multinomial" source_file="/home/kojoe/.local/lib/python3.10/site-packages/transformers/generation/utils.py" source_line=2998}
  %reshape.13219 = f32[1,1]{1,0} reshape(f32[] %constant.13206), metadata={op_type="aten__multinomial" op_name="aten__multinomial" source_file="/home/kojoe/.local/lib/python3.10/site-packages/transformers/generation/utils.py" source_line=2998}
  %broadcast.13220 = f32[1,1]{1,0} broadcast(f32[1,1]{1,0} %reshape.13219), dimensions={0,1}, metadata={op_type="aten__multinomial" op_name="aten__multinomial" source_file="/home/kojoe/.local/lib/python3.10/site-packages/transformers/generation/utils.py" source_line=2998}
  %constant.13205 = f32[] constant(0), metadata={op_type="aten__multinomial" op_name="aten__multinomial" source_file="/home/kojoe/.local/lib/python3.10/site-packages/transformers/generation/utils.py" source_line=2998}
  %reshape.13217 = f32[1,1]{1,0} reshape(f32[] %constant.13205), metadata={op_type="aten__multinomial" op_name="aten__multinomial" source_file="/home/kojoe/.local/lib/python3.10/site-packages/transformers/generation/utils.py" source_line=2998}
  %broadcast.13218 = f32[1,1]{1,0} broadcast(f32[1,1]{1,0} %reshape.13217), dimensions={0,1}, metadata={op_type="aten__multinomial" op_name="aten__multinomial" source_file="/home/kojoe/.local/lib/python3.10/site-packages/transformers/generation/utils.py" source_line=2998}
  %subtract.13236 = f32[1,1]{1,0} subtract(f32[1,1]{1,0} %broadcast.13220, f32[1,1]{1,0} %broadcast.13218), metadata={op_type="aten__multinomial" op_name="aten__multinomial" source_file="/home/kojoe/.local/lib/python3.10/site-packages/transformers/generation/utils.py" source_line=2998}
  %multiply.13237 = f32[1,1]{1,0} multiply(f32[1,1]{1,0} %multiply.13235, f32[1,1]{1,0} %subtract.13236), metadata={op_type="aten__multinomial" op_name="aten__multinomial" source_file="/home/kojoe/.local/lib/python3.10/site-packages/transformers/generation/utils.py" source_line=2998}
  %add.13238 = f32[1,1]{1,0} add(f32[1,1]{1,0} %multiply.13237, f32[1,1]{1,0} %broadcast.13218), metadata={op_type="aten__multinomial" op_name="aten__multinomial" source_file="/home/kojoe/.local/lib/python3.10/site-packages/transformers/generation/utils.py" source_line=2998}
  %broadcast.13240 = f32[1,92553,1]{2,1,0} broadcast(f32[1,1]{1,0} %add.13238), dimensions={0,2}, metadata={op_type="aten__multinomial" op_name="aten__multinomial" source_file="/home/kojoe/.local/lib/python3.10/site-packages/transformers/generation/utils.py" source_line=2998}
  %get-tuple-element.13169 = f32[1,92553]{1,0} get-tuple-element((f32[1,92553]{1,0}, s32[1,92553]{1,0}) %sort.13168), index=0, metadata={op_type="aten__topk" op_name="aten__topk" source_file="/home/kojoe/.local/lib/python3.10/site-packages/transformers/generation/logits_process.py" source_line=532}
  %slice.13170 = f32[1,50]{1,0} slice(f32[1,92553]{1,0} %get-tuple-element.13169), slice={[0:1], [0:50]}, metadata={op_type="aten__topk" op_name="aten__topk" source_file="/home/kojoe/.local/lib/python3.10/site-packages/transformers/generation/logits_process.py" source_line=532}
  %slice.13174 = f32[1,1]{1,0} slice(f32[1,50]{1,0} %slice.13170), slice={[0:1], [49:50]}, metadata={op_type="xla__generic_slice" op_name="xla__generic_slice" source_file="/home/kojoe/.local/lib/python3.10/site-packages/transformers/generation/logits_process.py" source_line=532}
  %reshape.13175 = f32[1]{0} reshape(f32[1,1]{1,0} %slice.13174), metadata={op_type="aten__view" op_name="aten__view" source_file="/home/kojoe/.local/lib/python3.10/site-packages/transformers/generation/logits_process.py" source_line=532}
  %reshape.13176 = f32[1,1]{1,0} reshape(f32[1]{0} %reshape.13175), metadata={op_type="aten__view" op_name="aten__view" source_file="/home/kojoe/.local/lib/python3.10/site-packages/transformers/generation/logits_process.py" source_line=532}
  %reshape.13177 = f32[1]{0} reshape(f32[1,1]{1,0} %reshape.13176), metadata={op_type="aten__lt" op_name="aten__lt" source_file="/home/kojoe/.local/lib/python3.10/site-packages/transformers/generation/logits_process.py" source_line=532}
  %broadcast.13178 = f32[1,92553]{1,0} broadcast(f32[1]{0} %reshape.13177), dimensions={0}, metadata={op_type="aten__lt" op_name="aten__lt" source_file="/home/kojoe/.local/lib/python3.10/site-packages/transformers/generation/logits_process.py" source_line=532}
  %compare.13179 = pred[1,92553]{1,0} compare(f32[1,92553]{1,0} %slice.13160, f32[1,92553]{1,0} %broadcast.13178), direction=LT, metadata={op_type="aten__lt" op_name="aten__lt" source_file="/home/kojoe/.local/lib/python3.10/site-packages/transformers/generation/logits_process.py" source_line=532}
  %broadcast.13181 = pred[1,92553]{1,0} broadcast(pred[1,92553]{1,0} %compare.13179), dimensions={0,1}, metadata={op_type="aten__masked_fill" op_name="aten__masked_fill" source_file="/home/kojoe/.local/lib/python3.10/site-packages/transformers/generation/logits_process.py" source_line=533}
  %constant.13182 = pred[] constant(false), metadata={op_type="aten__masked_fill" op_name="aten__masked_fill" source_file="/home/kojoe/.local/lib/python3.10/site-packages/transformers/generation/logits_process.py" source_line=533}
  %broadcast.13183 = pred[1,92553]{1,0} broadcast(pred[] %constant.13182), dimensions={}, metadata={op_type="aten__masked_fill" op_name="aten__masked_fill" source_file="/home/kojoe/.local/lib/python3.10/site-packages/transformers/generation/logits_process.py" source_line=533}
  %compare.13184 = pred[1,92553]{1,0} compare(pred[1,92553]{1,0} %broadcast.13181, pred[1,92553]{1,0} %broadcast.13183), direction=NE, metadata={op_type="aten__masked_fill" op_name="aten__masked_fill" source_file="/home/kojoe/.local/lib/python3.10/site-packages/transformers/generation/logits_process.py" source_line=533}
  %p2.19 = f64[] parameter(2), sharding={replicated}, metadata={op_type="xla__device_data" op_name="xla__device_data" source_file="/home/kojoe/.local/lib/python3.10/site-packages/transformers/generation/logits_process.py" source_line=533}
  %convert.13185 = f32[] convert(f64[] %p2.19), metadata={op_type="aten__masked_fill" op_name="aten__masked_fill" source_file="/home/kojoe/.local/lib/python3.10/site-packages/transformers/generation/logits_process.py" source_line=533}
  %broadcast.13186 = f32[1,92553]{1,0} broadcast(f32[] %convert.13185), dimensions={}, metadata={op_type="aten__masked_fill" op_name="aten__masked_fill" source_file="/home/kojoe/.local/lib/python3.10/site-packages/transformers/generation/logits_process.py" source_line=533}
  %broadcast.13180 = f32[1,92553]{1,0} broadcast(f32[1,92553]{1,0} %slice.13160), dimensions={0,1}, metadata={op_type="aten__masked_fill" op_name="aten__masked_fill" source_file="/home/kojoe/.local/lib/python3.10/site-packages/transformers/generation/logits_process.py" source_line=533}
  %select.13187 = f32[1,92553]{1,0} select(pred[1,92553]{1,0} %compare.13184, f32[1,92553]{1,0} %broadcast.13186, f32[1,92553]{1,0} %broadcast.13180), metadata={op_type="aten__masked_fill" op_name="aten__masked_fill" source_file="/home/kojoe/.local/lib/python3.10/site-packages/transformers/generation/logits_process.py" source_line=533}
  %constant.13188 = f32[] constant(-inf), metadata={op_type="aten__softmax" op_name="aten__softmax" source_file="/home/kojoe/.local/lib/python3.10/site-packages/torch/nn/functional.py" source_line=2140}
  %reduce.13193 = f32[1]{0} reduce(f32[1,92553]{1,0} %select.13187, f32[] %constant.13188), dimensions={1}, to_apply=%MaxComputation.13189, metadata={op_type="aten__softmax" op_name="aten__softmax" source_file="/home/kojoe/.local/lib/python3.10/site-packages/torch/nn/functional.py" source_line=2140}
  %broadcast.13194 = f32[1,92553]{1,0} broadcast(f32[1]{0} %reduce.13193), dimensions={0}, metadata={op_type="aten__softmax" op_name="aten__softmax" source_file="/home/kojoe/.local/lib/python3.10/site-packages/torch/nn/functional.py" source_line=2140}
  %subtract.13195 = f32[1,92553]{1,0} subtract(f32[1,92553]{1,0} %select.13187, f32[1,92553]{1,0} %broadcast.13194), metadata={op_type="aten__softmax" op_name="aten__softmax" source_file="/home/kojoe/.local/lib/python3.10/site-packages/torch/nn/functional.py" source_line=2140}
  %exponential.13196 = f32[1,92553]{1,0} exponential(f32[1,92553]{1,0} %subtract.13195), metadata={op_type="aten__softmax" op_name="aten__softmax" source_file="/home/kojoe/.local/lib/python3.10/site-packages/torch/nn/functional.py" source_line=2140}
  %constant.13197 = f32[] constant(0), metadata={op_type="aten__softmax" op_name="aten__softmax" source_file="/home/kojoe/.local/lib/python3.10/site-packages/torch/nn/functional.py" source_line=2140}
  %reduce.13202 = f32[1]{0} reduce(f32[1,92553]{1,0} %exponential.13196, f32[] %constant.13197), dimensions={1}, to_apply=%AddComputation.13198, metadata={op_type="aten__softmax" op_name="aten__softmax" source_file="/home/kojoe/.local/lib/python3.10/site-packages/torch/nn/functional.py" source_line=2140}
  %broadcast.13203 = f32[1,92553]{1,0} broadcast(f32[1]{0} %reduce.13202), dimensions={0}, metadata={op_type="aten__softmax" op_name="aten__softmax" source_file="/home/kojoe/.local/lib/python3.10/site-packages/torch/nn/functional.py" source_line=2140}
  %divide.13204 = f32[1,92553]{1,0} divide(f32[1,92553]{1,0} %exponential.13196, f32[1,92553]{1,0} %broadcast.13203), metadata={op_type="aten__softmax" op_name="aten__softmax" source_file="/home/kojoe/.local/lib/python3.10/site-packages/torch/nn/functional.py" source_line=2140}
  %reduce-window.13211 = f32[1,92553]{1,0} reduce-window(f32[1,92553]{1,0} %divide.13204, f32[] %constant.13205), window={size=1x92553 pad=0_0x92552_0}, to_apply=%AddComputation.13207, metadata={op_type="aten__multinomial" op_name="aten__multinomial" source_file="/home/kojoe/.local/lib/python3.10/site-packages/transformers/generation/utils.py" source_line=2998}
  %slice.13212 = f32[1,1]{1,0} slice(f32[1,92553]{1,0} %reduce-window.13211), slice={[0:1], [92552:92553]}, metadata={op_type="aten__multinomial" op_name="aten__multinomial" source_file="/home/kojoe/.local/lib/python3.10/site-packages/transformers/generation/utils.py" source_line=2998}
  %broadcast.13213 = f32[1,1]{1,0} broadcast(f32[1,1]{1,0} %slice.13212), dimensions={0,1}, metadata={op_type="aten__multinomial" op_name="aten__multinomial" source_file="/home/kojoe/.local/lib/python3.10/site-packages/transformers/generation/utils.py" source_line=2998}
  %reshape.13214 = f32[1]{0} reshape(f32[1,1]{1,0} %broadcast.13213), metadata={op_type="aten__multinomial" op_name="aten__multinomial" source_file="/home/kojoe/.local/lib/python3.10/site-packages/transformers/generation/utils.py" source_line=2998}
  %broadcast.13215 = f32[1,92553]{1,0} broadcast(f32[1]{0} %reshape.13214), dimensions={0}, metadata={op_type="aten__multinomial" op_name="aten__multinomial" source_file="/home/kojoe/.local/lib/python3.10/site-packages/transformers/generation/utils.py" source_line=2998}
  %divide.13216 = f32[1,92553]{1,0} divide(f32[1,92553]{1,0} %reduce-window.13211, f32[1,92553]{1,0} %broadcast.13215), metadata={op_type="aten__multinomial" op_name="aten__multinomial" source_file="/home/kojoe/.local/lib/python3.10/site-packages/transformers/generation/utils.py" source_line=2998}
  %broadcast.13239 = f32[1,92553,1]{2,1,0} broadcast(f32[1,92553]{1,0} %divide.13216), dimensions={0,1}, metadata={op_type="aten__multinomial" op_name="aten__multinomial" source_file="/home/kojoe/.local/lib/python3.10/site-packages/transformers/generation/utils.py" source_line=2998}
  %compare.13241 = pred[1,92553,1]{2,1,0} compare(f32[1,92553,1]{2,1,0} %broadcast.13240, f32[1,92553,1]{2,1,0} %broadcast.13239), direction=GT, metadata={op_type="aten__multinomial" op_name="aten__multinomial" source_file="/home/kojoe/.local/lib/python3.10/site-packages/transformers/generation/utils.py" source_line=2998}
  %convert.13242 = s64[1,92553,1]{2,1,0} convert(pred[1,92553,1]{2,1,0} %compare.13241), metadata={op_type="aten__multinomial" op_name="aten__multinomial" source_file="/home/kojoe/.local/lib/python3.10/site-packages/transformers/generation/utils.py" source_line=2998}
  %constant.13243 = s64[] constant(0), metadata={op_type="aten__multinomial" op_name="aten__multinomial" source_file="/home/kojoe/.local/lib/python3.10/site-packages/transformers/generation/utils.py" source_line=2998}
  %reduce.13249 = s64[1,1]{1,0} reduce(s64[1,92553,1]{2,1,0} %convert.13242, s64[] %constant.13243), dimensions={1}, to_apply=%AddComputation.13245, metadata={op_type="aten__multinomial" op_name="aten__multinomial" source_file="/home/kojoe/.local/lib/python3.10/site-packages/transformers/generation/utils.py" source_line=2998}
  %reshape.13250 = s64[1]{0} reshape(s64[1,1]{1,0} %reduce.13249), metadata={op_type="aten__view" op_name="aten__view" source_file="/home/kojoe/.local/lib/python3.10/site-packages/transformers/generation/utils.py" source_line=2998}
  %constant.4 = s64[] constant(1), metadata={op_type="prim__Constant" op_name="prim__Constant" source_file="/home/kojoe/.local/lib/python3.10/site-packages/transformers/generation/utils.py" source_line=2947}
  %reshape.5 = s64[1]{0} reshape(s64[] %constant.4), metadata={op_type="aten__expand" op_name="aten__expand" source_file="/home/kojoe/.local/lib/python3.10/site-packages/transformers/generation/utils.py" source_line=2947}
  %broadcast.6 = s64[1]{0} broadcast(s64[1]{0} %reshape.5), dimensions={0}, metadata={op_type="aten__expand" op_name="aten__expand" source_file="/home/kojoe/.local/lib/python3.10/site-packages/transformers/generation/utils.py" source_line=2947}
  %multiply.13251 = s64[1]{0} multiply(s64[1]{0} %reshape.13250, s64[1]{0} %broadcast.6), metadata={op_type="aten__mul" op_name="aten__mul.740/aten__mul" source_file="/home/kojoe/.local/lib/python3.10/site-packages/transformers/generation/utils.py" source_line=3004}
  %p0.11 = s64[] parameter(0), sharding={replicated}, metadata={op_type="xla__device_data" op_name="xla__device_data" source_file="/home/kojoe/.local/lib/python3.10/site-packages/transformers/generation/utils.py" source_line=3004}
  %broadcast.12 = s64[1]{0} broadcast(s64[] %p0.11), dimensions={}, metadata={op_type="aten__mul" op_name="aten__mul.742/aten__mul" source_file="/home/kojoe/.local/lib/python3.10/site-packages/transformers/generation/utils.py" source_line=3004}
  %constant.3 = s64[] constant(1), metadata={op_type="prim__Constant" op_name="prim__Constant" source_file="/home/kojoe/.local/lib/python3.10/site-packages/torch/_tensor.py" source_line=1019}
  %broadcast.9 = s64[1]{0} broadcast(s64[] %constant.3), dimensions={}, metadata={op_type="aten__rsub" op_name="aten__rsub.741/aten__rsub" source_file="/home/kojoe/.local/lib/python3.10/site-packages/torch/_tensor.py" source_line=1019}
  %constant.2 = s64[] constant(1), metadata={op_type="prim__Constant" op_name="prim__Constant" source_file="/home/kojoe/.local/lib/python3.10/site-packages/torch/_tensor.py" source_line=1019}
  %broadcast.7 = s64[1]{0} broadcast(s64[] %constant.2), dimensions={}, metadata={op_type="aten__rsub" op_name="aten__rsub.741/aten__rsub" source_file="/home/kojoe/.local/lib/python3.10/site-packages/torch/_tensor.py" source_line=1019}
  %multiply.8 = s64[1]{0} multiply(s64[1]{0} %broadcast.6, s64[1]{0} %broadcast.7), metadata={op_type="aten__rsub" op_name="aten__rsub.741/aten__rsub" source_file="/home/kojoe/.local/lib/python3.10/site-packages/torch/_tensor.py" source_line=1019}
  %subtract.10 = s64[1]{0} subtract(s64[1]{0} %broadcast.9, s64[1]{0} %multiply.8), metadata={op_type="aten__rsub" op_name="aten__rsub.741/aten__rsub" source_file="/home/kojoe/.local/lib/python3.10/site-packages/torch/_tensor.py" source_line=1019}
  %multiply.13 = s64[1]{0} multiply(s64[1]{0} %broadcast.12, s64[1]{0} %subtract.10), metadata={op_type="aten__mul" op_name="aten__mul.742/aten__mul" source_file="/home/kojoe/.local/lib/python3.10/site-packages/transformers/generation/utils.py" source_line=3004}
  %constant.1 = s64[] constant(1), metadata={op_type="prim__Constant" op_name="prim__Constant" source_file="/home/kojoe/.local/lib/python3.10/site-packages/transformers/generation/utils.py" source_line=3004}
  %broadcast.13252 = s64[1]{0} broadcast(s64[] %constant.1), dimensions={}, metadata={op_type="aten__add" op_name="aten__add.743/aten__add" source_file="/home/kojoe/.local/lib/python3.10/site-packages/transformers/generation/utils.py" source_line=3004}
  %multiply.13253 = s64[1]{0} multiply(s64[1]{0} %multiply.13, s64[1]{0} %broadcast.13252), metadata={op_type="aten__add" op_name="aten__add.743/aten__add" source_file="/home/kojoe/.local/lib/python3.10/site-packages/transformers/generation/utils.py" source_line=3004}
  %add.13254 = s64[1]{0} add(s64[1]{0} %multiply.13251, s64[1]{0} %multiply.13253), metadata={op_type="aten__add" op_name="aten__add.743/aten__add" source_file="/home/kojoe/.local/lib/python3.10/site-packages/transformers/generation/utils.py" source_line=3004}
  %slice.13255 = s64[1]{0} slice(s64[1]{0} %add.13254), slice={[0:1]}, metadata={op_type="xla__select" op_name="xla__select" source_file="/home/kojoe/.local/lib/python3.10/site-packages/transformers/generation/utils.py" source_line=3007}
  %reshape.13256 = s64[1,1]{1,0} reshape(s64[1]{0} %slice.13255), metadata={op_type="aten__view" op_name="aten__view" source_file="/home/kojoe/.local/lib/python3.10/site-packages/transformers/generation/utils.py" source_line=3007}
  %concatenate.13262 = s64[1,1]{1,0} concatenate(s64[1,0]{1,0} %broadcast.13261, s64[1,1]{1,0} %reshape.13256), dimensions={1}, metadata={op_type="aten__cat" op_name="aten__cat" source_file="/home/kojoe/.local/lib/python3.10/site-packages/transformers/generation/utils.py" source_line=3007}
  %slice.13263 = s64[1,1]{1,0} slice(s64[1,1]{1,0} %concatenate.13262), slice={[0:1], [0:1]}, metadata={op_type="xla__select" op_name="xla__select" source_file="/home/kojoe/.local/lib/python3.10/site-packages/transformers/generation/stopping_criteria.py" source_line=466}
  %slice.13264 = s64[1,1]{1,0} slice(s64[1,1]{1,0} %slice.13263), slice={[0:1], [0:1]}, metadata={op_type="xla__generic_slice" op_name="xla__generic_slice" source_file="/home/kojoe/.local/lib/python3.10/site-packages/transformers/generation/stopping_criteria.py" source_line=466}
  %reshape.13265 = s64[1]{0} reshape(s64[1,1]{1,0} %slice.13264), metadata={op_type="aten__view" op_name="aten__view" source_file="/home/kojoe/.local/lib/python3.10/site-packages/transformers/generation/stopping_criteria.py" source_line=466}
  ROOT %tuple.13266 = (s64[1]{0}) tuple(s64[1]{0} %reshape.13265)
}


Graph Hash: 7482f58e5da6fbf0236ad9bd066af997

## END_GRAPH

